backend/src/models/CAE1.pth (torch, 25976 bytes, 4 tensors)

encoder.weight f4 [80, 37]
000000 e5 fb 13 3e 66 05 94 b9 5d 36 c2 be 7f 6a 9e 3e
       0.14451559 -0.00028232782 -0.379321 0.30940625
000010 5f bc be 3d b6 5d 12 3e 62 2b 82 3e c3 1c ab 3c
       0.09313273 0.1429356 0.25423723 0.020887738
000020 7b ae d7 be 26 fa a8 3e 57 d2 80 bd ce ac 41 bc
       -0.42125306 0.33003348 -0.06290119 -0.011820985
000030 17 3e 13 be 08 ae 21 bd 96 52 25 3e df dd 36 3e
       -0.14379154 -0.03947261 0.16144785 0.17858075
000040 94 52 57 3c 60 31 26 3e 49 47 04 be 87 3d 6d 3c
       0.013142247 0.16229773 -0.12917818 0.014480001
000050 ee 89 22 be 45 15 85 be d8 1c 16 bb 0d 26 f0 3d
       -0.15872929 -0.2599279 -0.0022905376 0.117260076
000060 d3 0c 1c 3d bf 52 3c bc 1d 07 2d 3e 41 44 1a bd
       0.038098168 -0.011494338 0.16897245 -0.03766275
000070 d6 52 43 be 0b 30 97 3e b5 c2 a4 bd 31 62 00 3e
       -0.19074568 0.2952884 -0.0804495 0.12537457
000080 f4 04 8a 3c 5b 8f a1 3d 53 9a 64 3e 43 0e 97 3d
       0.016848065 0.07888671 0.22324495 0.07375767
000090 fe 4a 66 3e d5 86 9c be f4 6c d4 be 48 3d 99 be
       0.22489545 -0.3057162 -0.41489375 -0.29929566
0000a0 9d d5 86 3e 05 bb 30 3e 94 75 19 3e f0 cd 1e be
       0.2633485 0.17258842 0.14986259 -0.15508246
0000b0 91 f3 8e bc 11 c3 65 bd bf 29 31 be d8 3e e6 3b
       -0.017450126 -0.056094233 -0.17301081 0.0070265345
0000c0 38 32 44 3e 92 7f af bd 98 4c 94 3d fd bc 46 bd
       0.19159782 -0.08569254 0.072411716 -0.048520077
0000d0 bf 82 eb bb ad 5f 93 3d d7 a3 0a b9 63 a5 99 bc
       -0.007187217 0.07195983 -0.0001322174 -0.01875562
0000e0 dc 29 c2 bd d7 75 11 be e1 9e f6 bd 7d 1d a9 3c
       -0.0948064 -0.14205109 -0.120420225 0.020643944
0000f0 03 12 64 be fd 7c 02 3e b0 07 03 b8 37 25 c1 bd
       -0.22272496 0.12742992 -3.1239993e-05 -0.09430926
000100 6f 90 6f 3c 9c 45 0c 3d 18 3b 87 3d b8 b5 cb bd
       0.014621838 0.034246072 0.06603068 -0.099467695
000110 9e 39 65 bd a8 dc 2d bd 70 7a 9b 3d 4a 84 78 3e
       -0.05596315 -0.042446762 0.075917125 0.24269214
000120 bc 7b e9 bb 81 12 1e be 5f 1c 65 bc ea 39 9e be
       -0.007125346 -0.15436746 -0.013983815 -0.3090356
000130 f0 bc 94 3e 15 67 3d be b5 46 ba bd 54 e9 77 3e
       0.29050398 -0.18496354 -0.090955175 0.24210101
000140 55 86 88 3e 6c 56 c9 be e6 66 2d bd 2c 1e 94 bd
       0.26664987 -0.39323747 -0.04233446 -0.07232317
000150 17 bb 3a bd 64 aa 5f 3e bf e4 6d 3e 0e 3e 01 3d
       -0.04558858 0.21842343 0.23231791 0.03155332
000160 ab 13 5c 3e b9 47 a6 bd 90 a5 19 3e c9 e1 01 3e
       0.21491878 -0.08119149 0.15004563 0.12683786
000170 5c fb b5 3d f2 10 15 3e a7 e4 16 3e 7a 3a 7f ba
       0.088858336 0.14557245 0.14735661 -0.0009736192
000180 6c bb 8c 3d 86 67 8b 3d 45 84 74 bd 53 79 8b be
       0.068716854 0.06806855 -0.059696455 -0.27241
000190 24 c7 c7 3d bf 3a 11 be 17 46 de bc 70 d3 08 3e
       0.0975478 -0.14182566 -0.02713303 0.13361907
0001a0 a8 1e fc 3d 00 09 20 be e9 ea 6f 3e c0 a7 5e bd
       0.12310535 -0.15628433 0.23429455 -0.054359198
0001b0 96 b9 51 bd b3 90 1d bc 2d fc 56 3d 68 e0 b1 bc
       -0.05120238 -0.0096170185 0.052486587 -0.02171345
0001c0 db 8a 55 3e 5f 4d c4 3e da d3 ea 3d f3 0b bd be
       0.2085375 0.3834028 0.11466189 -0.3692318
0001d0 79 86 18 be 15 3c c5 bd 54 51 1e 3e de 41 47 3e
       -0.14895047 -0.096306 0.15460712 0.1945872
0001e0 f0 a8 85 bd 25 70 bd bd 01 e7 95 bb dc c2 30 3c
       -0.06526363 -0.092499055 -0.004574657 0.010788646
0001f0 ad 68 c9 bd 25 6f 1c 3d 9d 39 5a bc 46 2d fe bd
       -0.098344184 0.038191933 -0.0133194 -0.12410979
000200 f9 43 7b 3e 70 1c 97 3d 3a 3c 5e be 14 3f 6a 3e
       0.24537648 0.07378471 -0.21702662 0.22875625
000210 b5 ce 27 3c 86 33 6f be 0c 53 7a 3b a2 54 4a 3e
       0.010242154 -0.23359498 0.0038196472 0.19758847
000220 18 5e 11 bd e5 78 59 3e cf cc 85 bd 17 2e f9 3c
       -0.035490125 0.21237524 -0.06533205 0.030417485
000230 dd 21 96 bd 6b 53 22 be c2 c1 82 3d c1 95 80 3e
       -0.07330678 -0.15852134 0.063846126 0.25114253
000240 7a 7f 28 3e 3f 73 5a be ed 81 37 bd ba 3c 37 be
       0.16454878 -0.21333025 -0.04480164 -0.17894259
000250 3e 10 29 bd 37 82 77 bd 81 1e d7 be 91 90 94 3e
       -0.041275255 -0.060426917 -0.4201546 0.29016545
000260 75 fb 60 bd 13 bc e9 be fe ab bd bd a3 c0 e7 bb
       -0.054927308 -0.45651302 -0.092613205 -0.0070725246
000270 4d 35 e3 bd b0 df 36 be 12 34 00 be ae 22 0c 3e
       -0.11094151 -0.17858768 -0.12519863 0.13685104
000280 ca 37 b4 bd 30 d9 2b 3d 67 c1 10 be 9c 86 ef 3d
       -0.087997034 0.041955173 -0.14136277 0.116955966
000290 0d f9 e9 3d d6 23 a0 3c 9e ba 93 bd 33 bf 92 bd
       0.11424456 0.019548338 -0.07213329 -0.071653746
0002a0 e3 76 47 be aa f3 bb bd 07 31 93 bd 3f da d7 3d
       -0.19478945 -0.091773346 -0.071870856 0.10539674
0002b0 cf c3 46 be eb 8f ad be 3c b8 7d 3d ad 04 06 3e
       -0.19410633 -0.33898863 0.061943278 0.13087721
0002c0 e3 08 b7 ba e6 41 46 3d 91 2b ca bd 78 a9 0d 3e
       -0.001396444 0.04840269 -0.09871591 0.13834178
0002d0 3c 7d 67 bd ac 4f 7b 3e 2e 8e 70 be 4f be db bd
       -0.056515917 0.24542111 -0.23491737 -0.10729658
0002e0 f9 a7 38 be 7a 70 36 3e ba 26 08 be be 8b 7f 3e
       -0.18032826 0.17816344 -0.13296023 0.24955651
0002f0 8c 77 72 be c5 d3 7f 3c ba 34 d5 be 52 54 10 bc
       -0.23678416 0.015614455 -0.4164179 -0.008809166
000300 8d 15 ad 3e 52 e0 eb bd a8 47 d8 3d 90 57 88 bc
       0.33805504 -0.11517395 0.10560542 -0.016643316
000310 92 83 f2 ba 86 18 37 3d 8b da d9 3b 3c 36 26 3d
       -0.0018502346 0.04470112 0.006648367 0.040579066
000320 5d 12 ed 3d 94 fd 02 bc 8c 9c 63 3c 33 54 e6 3b
       0.11575768 -0.007995028 0.013892304 0.0070290803
000330 06 20 5a 3d dd 2f 2b 3e 5e fb 41 3e b1 bd 62 3e
       0.053253196 0.16717477 0.18943545 0.22142674
000340 06 4f 6e 3d 23 7f 21 bd 54 b2 9e 3e 66 cc 16 be
       0.05818083 -0.039427888 0.3099543 -0.1472641
000350 4c f7 8b 3e 83 1f b4 bc 8d 18 db 3b b3 28 74 bd
       0.2733711 -0.021987682 0.0066862763 -0.059609126
000360 45 6e 31 be be 72 51 3d e9 7e 8f 3d b3 13 95 bd
       -0.1732722 0.051134817 0.07006628 -0.07279148
000370 ec ea 60 3e 46 01 fe 3d f2 55 95 be bb 15 b7 3e
       0.21964616 0.12402587 -0.29167134 0.35758767
000380 65 92 b1 3d d8 89 be 3e a0 54 05 3e 35 6c 25 3d
       0.08670501 0.3721454 0.13020563 0.040386397
000390 90 00 af 3e 28 2e a6 be e8 c4 b8 be c8 52 01 bc
       0.34180117 -0.3245709 -0.36087728 -0.007893272
0003a0 90 70 5a 3d a7 93 fe 3c f6 b5 17 3e ee 93 5e 3e
       0.053330004 0.031076265 0.14815506 0.21736118
0003b0 68 b0 37 3d 10 89 3b bd 79 75 eb bd cc 2f 16 3e
       0.04484597 -0.04578501 -0.114970155 0.1466667
0003c0 d0 dc 53 be d3 79 ed bd a7 6e 04 3e f7 45 00 bc
       -0.20689702 -0.11595502 0.12932836 -0.007829181
0003d0 69 dc 2c bd 17 ff 86 be 0e b1 d3 bd 25 cd 01 3e
       -0.042202387 -0.26366493 -0.10336505 0.12675913
0003e0 68 d8 7c bc 8d 37 02 3b 97 98 c5 bd b9 e9 04 be
       -0.015432455 0.0019869537 -0.09648245 -0.12979783
0003f0 a8 7b 4d 3e d9 c8 bc bd 04 13 4c be 31 39 c8 3d
       0.20066702 -0.09217996 -0.19929129 0.097765334

encoder.bias f4 [80]
000000 4d 57 fa 3d d6 00 b6 bd d5 d4 ba 3d 77 dc 5f bd
       0.122236826 -0.08886878 0.09122626 -0.05465361
000010 d2 2f 19 3e 91 fc 8e bd 8a c8 ea 3d 81 34 d2 bd
       0.14959648 -0.06981767 0.11464031 -0.102639206
000020 ac 23 b7 3d ac ea 97 bc a4 c2 8e 3d 41 b5 52 bd
       0.08942351 -0.018544517 0.069707185 -0.05144239
000030 44 2e b0 bd ae 73 40 bd 62 c2 97 3d ab 72 f8 bd
       -0.086025745 -0.04698532 0.074101225 -0.12131246
000040 08 d7 06 bd 2c 09 4b ba 6e bb 4c be 2b ca c0 bd
       -0.032919914 -0.0007745202 -0.19993374 -0.094135605
000050 f8 22 9b 3d 5b cb 1e 3d 0c 2a b8 3d 9e ea 2a 3d
       0.07575029 0.038768154 0.08992395 0.041727655
000060 62 80 f0 3c 64 fd fe bd 40 59 79 be 58 84 49 be
       0.029358093 -0.12450674 -0.24350452 -0.19679391
000070 37 50 8d be 7b 29 04 3e 2a 4d 29 3d ae 73 3e 3e
       -0.27600262 0.12906449 0.041333355 0.18598816
000080 05 96 38 bd fb f7 b6 3d 9c cf 42 bd ae d3 aa 3d
       -0.045064945 0.08934017 -0.047561273 0.08341156
000090 b9 12 86 bd 6e e5 bc 3d 8d 6a 28 3c 12 82 d5 bc
       -0.0654654 0.09223448 0.01027931 -0.026062999
0000a0 98 07 06 be 33 90 19 3e 76 14 14 be 51 9a 2a bd
       -0.13088834 0.14996414 -0.1446093 -0.041651074
0000b0 d9 b1 da 3c b9 16 92 3d ad 59 c8 3c de e3 56 bd
       0.026696132 0.0713324 0.024456823 -0.052463405
0000c0 1a be 21 3e e8 01 d9 3d 54 e8 1a be 27 31 3e bd
       0.15795174 0.10596067 -0.15127689 -0.046433594
0000d0 59 15 0c be 2b 51 4c bd 35 4b 7e 3d 06 a2 0b be
       -0.13680018 -0.049882095 0.06208344 -0.13636026
0000e0 62 bb b4 3d ec ec 04 3d ed 35 28 bb 1a 64 89 bd
       0.08824803 0.03245251 -0.0025666908 -0.06708546
0000f0 06 64 0c 3d f0 53 44 bd c4 14 5e bd 2c 32 21 be
       0.034275077 -0.04793161 -0.054219022 -0.15741795
000100 2b 99 18 bd 07 6e 56 3d b9 04 12 3e 4b 14 3e be
       -0.037255447 0.052351024 0.14259614 -0.18562429
000110 a2 a4 42 bd 7f 27 2d bd 74 f6 0b be ca d6 59 bd
       -0.047520287 -0.042273995 -0.13668233 -0.053183354
000120 3e a2 4b bd e9 90 a8 3d 33 84 7a bd 6a 74 2d 3e
       -0.049715273 0.082307644 -0.06116123 0.1693894
000130 73 e6 9b bc a5 08 d8 bd 56 7a d2 bc 51 68 50 3d
       -0.019030785 -0.10548524 -0.0256931 0.050880734

decoder.weight f4 [37, 80]
000000 ee df 3d 3d ab e9 a1 be 9c 03 0a be 01 c8 17 3e
       0.046356134 -0.31623587 -0.1347794 0.14822389
000010 f8 a8 ce bc 02 36 8e 3e ae f3 34 be fb 05 1a 3e
       -0.025227055 0.2777558 -0.17671081 0.15041344
000020 b6 09 60 be e4 46 07 be bf 05 a2 be c5 f7 00 3e
       -0.21878704 -0.13210636 -0.3164501 0.12594517
000030 73 7b 1d be 41 01 d2 ba 11 7a be 3d 21 f5 53 be
       -0.15379123 -0.0016022102 0.09300626 -0.20698978
000040 b8 c5 95 3e 95 5a 8e 3e 06 a3 e4 3e 37 c0 b8 be
       0.2925241 0.27803484 0.44655627 -0.36084148
000050 09 55 8d be 30 02 00 bd 9b 50 70 be f4 16 f3 3d
       -0.2760394 -0.031252086 -0.23468249 0.11869612
000060 bd 78 9d be d7 cf 8e 3e b9 77 b8 3e 66 ff b6 3e
       -0.30756178 0.27892944 0.3602884 0.3574173
000070 a7 20 98 3e 75 a4 c8 3e cc c4 11 3e e8 95 83 3d
       0.29712412 0.3918797 0.14235228 0.06425077
000080 73 5e c0 bd 9e 4c 45 be 13 2e f9 3d cd 73 a7 be
       -0.09393015 -0.19267508 0.12166991 -0.32705536
000090 de 2e f9 3d 8c 6c 27 3e 9f a5 6a be 50 47 37 be
       0.12167142 0.16350001 -0.22914742 -0.17898297
0000a0 c6 cc ae 3e 2b f7 ec bd b4 54 f2 3d 05 5f 98 be
       0.34140605 -0.11570581 0.11832562 -0.29759994
0000b0 fd 68 8e 3e a6 1e 70 3d d1 b4 b9 3e 6a b0 bc be
       0.27814475 0.05862298 0.36270764 -0.36853343
0000c0 d6 cb 94 be 81 51 93 3e 61 9a 44 3d 63 8a 01 be
       -0.29061764 0.2877312 0.04799879 -0.12650447
0000d0 f9 42 83 be 63 39 d0 3e 0e 16 aa be d5 38 84 3e
       -0.25637034 0.40668783 -0.3321995 0.2582461
0000e0 f3 b1 6e be 6d 26 2b 3e 11 95 7e 3e d1 81 76 3e
       -0.2331007 0.16713877 0.24861552 0.24072959
0000f0 35 13 ae be e6 0b c2 3d 5f 60 7b be a6 23 fd 3d
       -0.3399903 0.09474926 -0.24548481 0.12360315
000100 5d af c8 be d9 7d 0e be 27 c8 98 be 2f bb bc 3e
       -0.39196292 -0.13915195 -0.29840204 0.3686156
000110 d6 18 05 be 49 f5 6d 3d 55 55 47 3c b5 86 99 be
       -0.12997755 0.05809525 0.012166341 -0.29985586
000120 77 9f 99 3e 26 99 ab 3e 5d 2c bb be 8c 20 fe bd
       0.30004475 0.3351528 -0.36557284 -0.124085516
000130 9f 4c 94 3e e6 6f 5f be 7e d2 d9 3d e8 d7 22 3d
       0.28964707 -0.2182003 0.10635851 0.039756685
000140 27 13 d8 bd fd 5a bb be 02 42 68 be 4c a6 52 3e
       -0.10550528 -0.36592856 -0.2268143 0.2057125
000150 be 79 ae bc f7 86 12 be 42 c2 4f 3e 47 c2 d1 be
       -0.021298286 -0.14309298 0.20288947 -0.40968534
000160 2c f5 5f 3e eb 2e 3f 3e 12 b9 ac 3d e1 c4 39 be
       0.2187087 0.18670242 0.08433737 -0.1814151
000170 c4 88 47 3e c6 4e 07 bd c2 e2 b2 3e ce c3 85 3e
       0.19485766 -0.03303411 0.34938627 0.2612595
000180 27 d4 42 3e c6 85 7e be c1 9f c5 3e ef 83 3b be
       0.19026242 -0.24855718 0.38598445 -0.18312047
000190 05 9a 05 be 22 39 cb bd 7f 73 80 3e 05 12 4f 3e
       -0.13047035 -0.099230066 0.25088117 0.20221718
0001a0 85 5e 7f 3e f4 80 51 3e e4 99 0f be af 3f 80 be
       0.249384 0.20459348 -0.14023548 -0.25048587
0001b0 8d 25 5a be d6 cd 45 bc b5 5c e6 bd 2e 42 4d 3e
       -0.21303387 -0.012073001 -0.11248151 0.20044777
0001c0 76 78 5f 3e 90 34 7e 3e f9 fb 14 3e b8 a7 3f 3e
       0.21823296 0.24824739 0.14549245 0.18716323
0001d0 d2 fa 98 3e ad 8e 81 be fd 44 46 be f7 8c 41 3e
       0.2987886 -0.25304165 -0.19362254 0.1890143
0001e0 90 52 94 3e 91 79 e5 3d 8a d0 54 be b7 e9 68 bd
       0.2896924 0.112048276 -0.20782676 -0.056863513
0001f0 b2 d5 d2 3e d6 20 a2 be 22 8b 0a bd 78 6f f9 bd
       0.41178662 -0.31665677 -0.033824094 -0.12179464
000200 8e 8d 8c be 83 81 4a 3d fc f5 34 ba 73 e1 2a be
       -0.27451748 0.04943992 -0.00069031096 -0.16687565
000210 4a 3c f6 3d af cf 0b be 63 1d 8b be 79 cf 71 bd
       0.12023218 -0.13653444 -0.27170858 -0.059035752
000220 41 51 98 be 02 a9 fa 3d 84 eb 8b bd 25 06 26 3e
       -0.29749492 0.12239267 -0.068320304 0.16213281
000230 d8 8a 65 3e b4 b5 73 be 90 4c 09 bd 35 02 3d be
       0.22416246 -0.23799783 -0.03352028 -0.18457873
000240 a9 65 2a be 2f e0 de bc 57 26 27 be 17 79 0c 3d
       -0.16640343 -0.027206508 -0.16323219 0.034295168
000250 f4 3b 27 be fe 59 d5 3d 1e 5d 79 be 68 0d ad 3d
       -0.16331464 0.10417555 -0.24351928 0.08449823
000260 2d 99 f1 bd aa f4 4f 3c 44 0a 8f 3e ee d0 0f 3e
       -0.11796794 0.01269261 0.2793752 0.14044544
000270 6d 44 08 bc 7f 93 58 be 7e a0 9a 3e a9 db ab 3e
       -0.008317095 -0.21150015 0.3020057 0.33566025
000280 e9 df 98 be 7a c0 a9 be 0f d1 6d 3e 3d 8a 74 3e
       -0.2985833 -0.3315466 0.23224281 0.23880859
000290 74 39 8a be 2b 62 53 3e 9d 13 1c 3e 14 d3 d4 3d
       -0.26996958 0.20642917 0.15241857 0.103918225
0002a0 0c bf 42 3e f9 e4 8c be e4 c3 4d be 56 23 b1 be
       0.19018191 -0.27518442 -0.20094258 -0.34597272
0002b0 88 ad 78 3e 95 84 3a 3e 43 bd 91 bd 73 00 95 3e
       0.24284947 0.18214639 -0.07116177 0.29101905
0002c0 72 03 4d 3d 5e ff 49 3e fc 40 51 be 6e 71 2b 3c
       0.050052114 0.19726321 -0.20434946 0.010464055
0002d0 21 73 df 3c 3a 01 0e 3e 9a df 88 be 88 9d 47 3e
       0.027276577 0.13867655 -0.26733094 0.19493687
0002e0 4b 03 58 be b3 74 b8 3e c5 f3 18 be 40 64 3c be
       -0.21095006 0.36026534 -0.1493674 -0.18397617
0002f0 81 7a a8 be de 45 c5 3d 73 fb 81 be 4d 63 81 bd
       -0.32905963 0.09632467 -0.25387153 -0.06317768
000300 f4 ac 40 bd 0b 1d c6 3d 2e 8b 72 3e 19 91 3b 3c
       -0.04703994 0.09673508 0.23685905 0.011448168
000310 84 52 ed bd 59 70 2f be 9c 0b 7b be 99 81 db 3d
       -0.11588004 -0.17132701 -0.24516147 0.10718078
000320 a4 b7 3c 3e a8 af fb bd a0 17 e2 3c 13 97 9c 3d
       0.18429428 -0.12289363 0.027599156 0.076460026
000330 f9 cf 7d 3e 07 ee fa 3c cc 9b 7e 3e 34 90 37 be
       0.24786367 0.030631078 0.2486412 -0.17926103
000340 2c cf d2 3d dc f0 1b be 42 d6 7c be 88 c5 5b 3e
       0.10293421 -0.152286 -0.24691108 0.21462071
000350 f4 3a 6f be e3 9f c7 3d 5b 62 25 3e fe 18 da 3d
       -0.23362333 0.09747293 0.16150801 0.10649298
000360 a4 5e 81 3e 30 0f 6d 3e 91 a5 93 3d ce 67 dc be
       0.25267518 0.23150325 0.07209314 -0.43047947
000370 e4 18 40 bb 0c dd cb be fd e0 af bd 25 1a 51 3d
       -0.002931171 -0.39817083 -0.08587835 0.051050324
000380 0a e4 17 3e f4 2d b9 bc 88 70 ef bd c0 1c 7f 3e
       0.14833084 -0.02260492 -0.116913855 0.24913311
000390 8d 42 30 3e d3 f6 60 be 3a 7c 98 3d 7c c7 ca 3d
       0.17212887 -0.21969156 0.07445569 0.0990133
0003a0 a2 17 42 be 48 20 66 be 20 91 e5 3d 66 e5 b0 be
       -0.18954328 -0.22473252 0.11209321 -0.34550017
0003b0 df 74 e1 3d 2b 73 3d bd 3d 8e 2a be 0c c7 8c 3e
       0.110086195 -0.04625241 -0.16655822 0.2749561
0003c0 39 72 80 3e ed 98 84 3e c8 f7 31 be fc d5 14 3e
       0.25087145 0.25897923 -0.17379677 0.14534754
0003d0 bd 69 8c 3e 8b e1 2e be 4c 6c 7b 3e 41 cf 8c be
       0.27424422 -0.17078225 0.2455303 -0.27501872
0003e0 26 66 5e 3e 7d f4 33 bb 3a a6 1e bd db 42 07 3e
       0.21718654 -0.0027458959 -0.038732745 0.13209097
0003f0 f2 b7 a4 be c1 0d 47 3e 01 4f 4c be 6e d3 44 3e
       -0.3217159 0.1943884 -0.19952013 0.19221279

decoder.bias f4 [37]
000000 79 86 04 3e e2 b3 a2 bd 2f d3 8f 3d b3 45 e3 bd
       0.12941922 -0.07944466 0.07022702 -0.110972784
000010 39 f2 55 bd 1d 12 23 3d 46 d3 c3 bc b1 0a 0e bd
       -0.052232955 0.039812196 -0.023904454 -0.034678165
000020 c8 df 82 3d e4 c5 85 bd 36 35 a0 3d b5 a4 30 3d
       0.06390339 -0.06531885 0.07822649 0.043125827
000030 88 01 d3 3d 13 23 4b bb 7a fd a2 bd 27 5c a2 bd
       0.103030264 -0.0030996248 -0.07958503 -0.07927733
000040 d8 61 6d 3d 19 f8 ee 3d 20 5f e0 3d b7 d4 cb 3c
       0.05795464 0.116684146 0.10955644 0.024881704
000050 9b 8d 8a 3c 05 f9 07 bd 57 b2 8d 3d 05 ce 85 3d
       0.016913226 -0.033196468 0.06918781 0.06533436
000060 bb 46 be 3c 00 c5 9d bd 12 27 76 bd 5e bb 8d bd
       0.023227086 -0.077035904 -0.060095854 -0.06920503
000070 8c b6 9f bd 6d a9 12 bd 4d 67 62 3d 78 05 cd 3d
       -0.0779849 -0.03580611 0.055274297 0.10010809
000080 05 b0 17 bd 3f cd 6b bd 31 2a d5 bc 1c d8 91 3c
       -0.0370331 -0.057568785 -0.026021095 0.017803244
000090 5d f1 cd bd
       -0.10055802
