backend/src/models/CAE2.pth (torch, 27896 bytes, 4 tensors)

encoder.weight f4 [40, 80]
000000 22 d2 d8 3d df ce 98 bd 0f 9c 36 be 5e ca ac 3c
       0.10586955 -0.074613325 -0.17832969 0.02109259
000010 92 22 ef bd 85 a1 87 be dd 3d 17 bd 4f 69 f2 bd
       -0.11676516 -0.26490417 -0.03692423 -0.11836492
000020 50 f9 a8 bd 2f f6 d9 bd d0 a0 2c be 6a f1 03 3e
       -0.082506776 -0.10642659 -0.1685822 0.12885061
000030 1a 38 7e 3e cc ec 1d 3e 7f 7b 01 3e 61 48 11 bc
       0.24826089 0.15422362 0.12644766 -0.008867354
000040 c2 75 d0 bc f6 32 18 be 66 6d 2f 3d 76 bc 9f bd
       -0.025446776 -0.1486319 0.04282894 -0.07799618
000050 8b e4 6d bc 64 c8 5c be a1 79 f1 bd 23 77 57 3d
       -0.014519821 -0.21560818 -0.11790777 0.052603852
000060 2f f5 90 bd 0c 9e 31 be 7d ae 80 bd ed 8e 90 be
       -0.07078015 -0.17345446 -0.06283281 -0.28234044
000070 6a ff f6 bd 6a 50 18 3e f1 02 a7 bd 0d 5c 11 3d
       -0.12060435 0.14874426 -0.08154858 0.035488177
000080 c2 22 5d 3d f3 7a 34 3c 33 8a 8a bd 0d 12 d3 3c
       0.053988226 0.0110156415 -0.06764641 0.025765443
000090 34 6d 74 bc f3 32 ac bd ab 61 04 3e f8 4c 89 3d
       -0.014918614 -0.08408155 0.12927882 0.06704134
0000a0 5d 74 30 be a2 8a 72 3d cd 81 4e 3d 7b 6e 03 3d
       -0.17231889 0.05921424 0.050416756 0.032087784
0000b0 89 51 f8 3d c4 cc 24 be d2 a3 31 be f2 2f d2 ba
       0.121249266 -0.16093737 -0.17347649 -0.0016036017
0000c0 6a ab 4f bd 55 85 50 bd a4 49 02 3e 22 f6 18 bd
       -0.050700583 -0.050908405 0.12723404 -0.037344106
0000d0 6b 7d 56 3c 79 d5 a3 bc 55 24 9e 3d 8c ef 09 be
       0.013091425 -0.019999253 0.077217735 -0.13470286
0000e0 39 8a 3f be b2 3f e2 3d d7 88 1a 3e f9 53 37 3e
       -0.18705072 0.11047305 0.15091263 0.17903127
0000f0 27 04 06 bd c0 da 1a 3d 7d d7 7d 3c 6f e0 61 be
       -0.032718804 0.037806273 0.015493271 -0.22058271
000100 1e 00 29 3e 1c 36 4e 3b ca 20 3b bd 05 2b 13 be
       0.16503951 0.0031465357 -0.045685567 -0.1437188
000110 5a 29 30 3e 72 1a e1 bc e2 9a b3 3d 6b 6e 1c be
       0.17203274 -0.02747843 0.08769776 -0.15276496
000120 32 26 a3 bd b4 83 02 3e e5 a4 57 3e 15 fc 1d bd
       -0.079662696 0.12745553 0.21058996 -0.038570482
000130 f3 99 06 3e ba 95 90 bd 34 36 b7 bc e5 e7 10 3d
       0.13144664 -0.07059808 -0.022364713 0.0353774
000140 8a 7c 2c 3e bc 18 28 3d 09 9c 0b be 99 d1 bd 3d
       0.16844383 0.041039214 -0.13633741 0.09268493
000150 d8 a2 8c bd 53 93 f2 3c 39 c2 2f 3e 57 a7 4d be
       -0.068669975 0.029611265 0.17163934 -0.20083366
000160 01 57 27 be 0d 2b 29 3d 70 ed 09 bd cc d3 37 3e
       -0.16341783 0.041300822 -0.033673704 0.17951888
000170 4a 07 fd bd 52 f2 b0 bc c8 3a 6f bd 85 8d 9a 3d
       -0.12354906 -0.021599922 -0.058405668 0.07546524
000180 b0 f5 f5 bc b8 c9 22 3e 9c be f1 bd c9 d0 73 3e
       -0.03002438 0.15897262 -0.11803934 0.23810114
000190 67 4e 46 3e a1 11 93 bd 09 1f 85 3e ee 9e 26 be
       0.19365846 -0.07181097 0.2600024 -0.16271564
0001a0 ba db b1 3d e4 56 63 3d db 64 b7 bd 28 70 35 be
       0.08684488 0.055502787 -0.089547835 -0.17718565
0001b0 3f 65 6f 3e 53 76 c9 3d 32 87 0b be d3 90 92 bd
       0.23378466 0.09837022 -0.13625792 -0.07156529
0001c0 3b 7f 0c 3d cf 5a f7 3d 63 f2 0d be e5 dd 4c 3c
       0.034301024 0.12077867 -0.13861994 0.012504076
0001d0 a4 a5 0b 3c bf ce 83 3c 60 ac a0 bd e7 37 c4 3c
       0.0085233785 0.016089795 -0.07845378 0.023952438
0001e0 0d cd 9b 3d f6 37 6e bd 1e ad 1a be 4a 23 92 bd
       0.0760747 -0.058158837 -0.15105101 -0.07135637
0001f0 6c 03 bd 3b f3 14 ed bd 3a ce f8 bd 44 7e 4a 3e
       0.00576823 -0.11576261 -0.121487096 0.19774729
000200 30 72 3c be c1 bc 05 be e0 32 cc bd f5 58 25 3e
       -0.18402934 -0.13060285 -0.09970641 0.16147216
000210 9d 02 45 3e c6 8a 39 be 73 fb b4 bd 74 07 2c 3e
       0.19239278 -0.18119344 -0.08837023 0.16799718
000220 a2 a7 3c bd cd fe de 3d e7 4d f2 bd e5 02 00 be
       -0.046058305 0.10888443 -0.11831265 -0.12501104
000230 72 6f 0e 3e bb de 1f be 9a 4d 53 bd 44 2c e4 3d
       0.139097 -0.15612309 -0.05158768 0.111412555
000240 6c 1d d4 3d 6e fd dd bc 17 6f 24 3e 32 78 99 bd
       0.10357174 -0.027098384 0.16058002 -0.074936286
000250 95 0c d5 3d df 4a f0 3c 9b 60 cc 3c b4 bf 3a 3e
       0.104027905 0.029332576 0.024948409 0.18237191
000260 fb f7 45 3e be 1b 1a be 3e 36 af bd 96 3b 82 bb
       0.19332878 -0.15049645 -0.08555268 -0.0039743884
000270 50 cd 34 3d 67 1c c3 bd 3b 5e 35 be a8 60 65 be
       0.044141114 -0.09526902 -0.17711727 -0.22400153
000280 0c 88 a9 bd 55 47 72 be d5 0f 6b 3e 67 fd 0b be
       -0.08277902 -0.23660024 0.22955258 -0.13670884
000290 c7 7d ae 3d 81 6b 4f 3d c6 3c ec 3d de 0f 45 3e
       0.08520084 0.050639633 0.11535029 0.19244334
0002a0 aa 0c 4b be 17 7c 30 be ed 5d 05 be a1 74 12 3d
       -0.1982905 -0.17234837 -0.13024111 0.035755757
0002b0 fe c0 9a bc cd e5 ab bd 49 38 1f bd 48 6c 2e 3e
       -0.018890854 -0.083934404 -0.038872037 0.17033494
0002c0 6a e7 44 3e 4d f7 a5 3d cd 45 fe bc 74 83 b8 3d
       0.19228902 0.081038095 -0.031039143 0.09009448
0002d0 c9 99 6d be 5c 7a 4c bd 89 da 4e be f0 8d ac 3d
       -0.23203196 -0.04992138 -0.20200552 0.0842551
0002e0 65 dc a1 be 9f 4d 00 3e 4f 4a 04 3d 81 52 f5 3c
       -0.3161346 0.1252961 0.03229743 0.029946567
0002f0 55 96 a0 3d 1a 63 72 3e 14 de 9f 3e e4 58 5c 3d
       0.078411736 0.23670617 0.3122412 0.05379571
000300 4e 83 33 be d9 61 77 be 4b f8 4b 3e 78 4f 53 be
       -0.17530558 -0.2415842 0.19918935 -0.20635784
000310 cf a1 10 3b d5 1c 94 3d 8c c7 b5 3d a5 94 c8 3d
       0.0022069102 0.07232062 0.08875951 0.09793977
000320 5d 30 2e be c1 84 72 bd 14 bb 8b 3e 13 ff 1e be
       -0.17010637 -0.059208635 0.27291167 -0.1552699
000330 a9 6a aa 3d 80 09 c0 3d 65 a8 ce bd 46 dd eb ba
       0.08321125 0.09376812 -0.100907125 -0.0017995022
000340 43 ea 9f bb 59 61 08 bd eb 4e 73 bd 67 f3 5f 3d
       -0.004880221 -0.033295963 -0.059401434 0.054675486
000350 28 cb 95 bd b9 03 bc 3e 12 c0 27 be 6b af af 3d
       -0.073141396 0.3672159 -0.16381863 0.0857838
000360 66 c5 48 3e 68 b0 82 3d 2f b1 82 3e 08 3d ad 3d
       0.19606552 0.06381303 0.25525805 0.084589064
000370 b0 a7 56 be 48 a0 58 3e 21 75 c6 38 68 9f 59 bd
       -0.20962405 0.21154892 9.463193e-05 -0.053130537
000380 ae 76 79 be b4 7a c2 bc 9c 7e 6f be eb 4b 1c 3e
       -0.24361679 -0.02374015 -0.23388141 0.15263335
000390 4a 27 06 bd f0 27 b7 3d 99 32 3c be dd 90 7c be
       -0.032752313 0.08943164 -0.18378676 -0.24664636
0003a0 f1 f7 c0 bd 40 8b df bd b1 6e 5f be d1 dd 34 3e
       -0.09422291 -0.10915232 -0.21819569 0.17662741
0003b0 c6 78 61 bc 8a a6 c7 bd a7 28 bc 3c 1e 63 ac 3e
       -0.013761705 -0.09748562 0.022968603 0.3366937
0003c0 2b 9d 63 be 8f 34 01 bd 2b 71 19 3d 1c 32 35 3e
       -0.22227924 -0.031544264 0.03746144 0.17694896
0003d0 1d 33 64 bb a3 c5 13 3e 11 e0 96 3d 2b d4 5a 3e
       -0.0034820505 0.14430861 0.07366956 0.21369998
0003e0 e4 e7 6e be 4d db a7 bb 83 6f 06 be a0 fb 9c 3c
       -0.23330647 -0.0051225782 -0.13128476 0.019162953
0003f0 b6 93 86 be d9 77 86 be 68 22 41 be 10 aa a8 bd
       -0.2628457 -0.26263312 -0.18860781 -0.08235562

encoder.bias f4 [40]
000000 d9 03 02 3c 4d 65 64 3c 9b 21 c4 3d ed 9d d1 bc
       0.007935488 0.013940168 0.09576722 -0.025588
000010 b4 b9 4f 3d 44 0f 79 3d 94 5d 1d bd 11 a2 e4 bc
       0.05071421 0.060805574 -0.03841932 -0.02790931
000020 ff fc d2 3b 77 99 fd bd 7e 1e 62 bd f3 3d c2 3d
       0.006438851 -0.12382787 -0.05520486 0.09484472
000030 7e 9a b6 3d 0a 8a 7d 3d 2b 97 c1 bd f5 c4 90 3c
       0.08916186 0.061899222 -0.09452661 0.017672041
000040 ee de 22 3c 3b 9b 63 bd c9 37 58 bd c9 3b 93 3d
       0.009940846 -0.05556796 -0.052787576 0.071891375
000050 c1 0e ed bd 39 65 ac 3d d0 66 0a 3e 00 62 5d 3d
       -0.1157508 0.08417744 0.13515782 0.05404854
000060 cf 3e 31 3d 58 e5 50 3d f1 16 2e 3d 9d 3e da bc
       0.04327279 0.05099997 0.042502347 -0.026641184
000070 52 4a 4f 3d 7d d1 8c 3d 51 a0 8b bd 28 81 db bb
       0.050607987 0.06875894 -0.06817687 -0.0066987462
000080 d3 a8 8e 3d 1d 6f cb 3d 0a 49 d1 bd 2b 82 24 bd
       0.069657944 0.099333026 -0.10219009 -0.0401632
000090 27 b7 d7 bc ee 78 85 bb 87 91 33 3d 99 c4 03 bd
       -0.026332451 -0.004073254 0.043839958 -0.032169912

decoder.weight f4 [80, 40]
000000 25 41 0b be 2e 60 12 3d 92 22 9b bc 9e 5a 78 bd
       -0.1359907 0.035736255 -0.018937383 -0.060633294
000010 aa d0 1f bd 37 a9 49 3e 5f d0 1a bb b6 f1 23 be
       -0.039017357 0.19693457 -0.0023622734 -0.16010174
000020 ba cd 30 be 7d 5f c3 3d 5a 78 3d bd b6 aa 05 3e
       -0.17265978 0.09539697 -0.046257354 0.13053402
000030 ed e1 7c 3d b7 92 ff 3d 67 7a f9 bd e1 cf 1e 3e
       0.061738897 0.124791555 -0.121815495 0.15508987
000040 35 8b 26 be b6 f9 3e 3d e0 e9 83 3e 94 58 b4 bd
       -0.16264041 0.04662486 0.2576437 -0.088059574
000050 25 cd 3f 3d 2e f0 6c 3e 45 c3 26 be 4c 01 e1 bd
       0.0468265 0.23138496 -0.16285427 -0.109865755
000060 c8 5e 23 be 28 d3 45 be 30 bc 67 bc bd 2c 0c 3c
       -0.15954125 -0.19318831 -0.0141439885 0.008555588
000070 f6 88 ff bc a7 78 3d bd 81 c4 5e 3e c7 84 8d bc
       -0.031193238 -0.04625764 0.21754648 -0.017275227
000080 ca 89 ed bd 91 1c 2d 3e f4 23 2e 3e e3 ad 43 3e
       -0.11598547 0.16905428 0.17005903 0.19109301
000090 eb 29 21 3e f0 75 1d 3e 01 06 31 3e 59 e8 f6 3a
       0.15738647 0.15377021 0.17287447 0.0018837556
0000a0 90 a4 d4 bd 31 73 66 3e 15 4b 45 bd 7e a7 9b bd
       -0.1038295 0.2250488 -0.048167307 -0.07600306
0000b0 34 80 60 3e 36 d0 91 bd 1a 86 ff 3d 26 1a 40 3d
       0.21923906 -0.07119791 0.1247675 0.046899937
0000c0 fe 34 22 be fe 93 2e be e4 29 3e 3d 70 96 60 3e
       -0.15840527 -0.17048642 0.04642667 0.21932387
0000d0 cc 40 71 bd e0 88 8e 3e e5 b0 ae bc e5 30 6c 3d
       -0.058899686 0.27838802 -0.021324584 0.057663817
0000e0 bd 7c 03 3e 45 01 85 3e 6b bc 68 bd b6 44 4c 3e
       0.12840553 0.2597753 -0.056820314 0.19948086
0000f0 88 40 0b 3e 30 b5 00 be 56 5a 31 3d 38 7b 3a be
       0.13598835 -0.12569118 0.04329904 -0.18211067
000100 61 96 28 bd 21 77 91 3d 43 db a7 bd 82 f9 14 be
       -0.041159038 0.071028 -0.08196118 -0.14548305
000110 8d f4 6f bd 05 e2 e6 3c e5 86 dd bd e2 2a 54 3e
       -0.05858283 0.028183946 -0.10816745 0.20719483
000120 3b 90 15 be 5b 6a ba 3d 4c a4 d9 bd de 61 2c be
       -0.14605801 0.09102317 -0.1062704 -0.16834208
000130 81 60 f3 bd 3d 4a 37 be e3 d6 63 3d 08 c0 94 3d
       -0.11883641 -0.17899413 0.055624854 0.072631896
000140 2f 75 15 bd 6b 59 1f be ae c5 95 3d c9 79 d1 bd
       -0.036488708 -0.15561454 0.07313095 -0.10228307
000150 44 af f0 bd fd 40 2d be 18 1a 8a 3d 55 18 c0 3d
       -0.11752179 -0.16919322 0.06743258 0.09379641
000160 eb df 95 bd a1 62 b7 3d ae ed 6d 3e 31 0d 22 3e
       -0.073180996 0.08954359 0.23235199 0.15825345
000170 a2 99 2b 3e 42 e6 18 3e 17 80 37 be 01 c9 e4 bd
       0.16757825 0.14931586 -0.17919956 -0.11171151
000180 16 d9 2b 3e 71 fa f7 3c 80 68 86 3e 9f f9 c6 bd
       0.1678203 0.030270787 0.26251602 -0.0971558
000190 6c 6d f1 bd 6c f6 63 3e c3 9f 7d 3e d8 85 2c be
       -0.11788449 0.22261971 0.24767976 -0.16847932
0001a0 24 6f 90 bc 7a b4 a7 3d aa e6 db bd d4 88 9a 3d
       -0.017631121 0.0818872 -0.10737355 0.07545629
0001b0 ce 2a 2c 3c a0 48 86 3d 2e 14 57 3e cd 89 c3 bd
       0.010508252 0.06556821 0.21003792 -0.09547768
0001c0 70 fa ec bd a7 e7 0b 3e a3 51 5e 3e a4 b3 4e bd
       -0.11571205 0.13662587 0.2171083 -0.050464287
0001d0 87 af 83 bd 60 0a bd 3d 98 4a d1 bd 4b 37 12 3e
       -0.064299636 0.092304945 -0.10219306 0.14278905
0001e0 15 5c 7d 3d 90 fc 7e bd 94 85 3a be 60 9c bf 3d
       0.061855394 -0.06225258 -0.18215019 0.09355998
0001f0 68 2f c8 3d 97 0d 0f 3c 45 ea 9a bb 6c 89 83 3e
       0.09774667 0.008731267 -0.004727634 0.25690782
000200 b7 01 8b bd 99 8d 32 be 06 d7 22 3e 3f 1f 2e 3d
       -0.067874365 -0.17436828 0.15902337 0.042510267
000210 27 7c 53 3e 52 94 37 3d 94 25 6f bd 9f 06 90 bd
       0.20652829 0.044819184 -0.058385447 -0.07032513
000220 61 b4 b6 3d 1a 56 1c be d7 3c 9c 3d d4 e0 38 be
       0.08921123 -0.1526722 0.07628792 -0.18054515
000230 c1 f4 25 be 84 27 72 3d fa 7f 6f 3e c4 37 15 bd
       -0.16206647 0.059119716 0.23388663 -0.036430135
000240 ab f5 89 3b 2d 1e c1 bd 91 4c a0 bd 6e 3d c3 bb
       0.004210194 -0.09429584 -0.07827104 -0.0059582507
000250 3d 32 23 3e 52 f1 6d 3e c1 3f 86 3c 04 15 58 3e
       0.15937133 0.23236588 0.016387822 0.21101767
000260 0a c1 53 be 70 a5 1d be 92 c7 ac bc cb 8e 1e 3d
       -0.20679107 -0.1539514 -0.021091256 0.038710397
000270 e0 19 18 3e 9b 97 cf 3d 50 09 64 3e 15 c3 df 3d
       0.1485362 0.10136338 0.22269177 0.10925881
000280 59 3d 21 be b6 a9 04 3e 56 ec ed 3d 84 1e 77 3e
       -0.15746059 0.12955365 0.11617343 0.24132735
000290 58 b2 aa 3d 68 df fd 3d 97 15 0e be b6 88 b8 3c
       0.083347976 0.12396127 -0.13875423 0.022526126
0002a0 17 d2 f0 3d 42 c6 3b 3e 41 82 0d be 54 69 35 3e
       0.117588215 0.18337348 -0.13819219 0.1771596
0002b0 5c b1 9b 3d d9 c4 11 3e a5 c4 09 bc e2 64 33 3e
       0.07602188 0.14235248 -0.0084087 0.17518952
0002c0 f1 b5 99 bd 12 0c 26 3d a0 fb cb 3d ee bc 3f 3d
       -0.07505406 0.040538855 0.09960103 0.046811037
0002d0 0f 8a 61 bd 30 e1 c5 3c d0 77 03 be 3b 8a bc 3d
       -0.055063304 0.02415523 -0.12838674 0.09206053
0002e0 2f d1 bc bd 42 4e e7 bd 09 29 1e be b3 fa 3e 3e
       -0.09219586 -0.11294223 -0.15445341 0.18650322
0002f0 80 1d 0d 3e f1 35 fc bd 59 8d 16 be 13 87 f5 bc
       0.13780785 -0.12314976 -0.14702357 -0.029971635
000300 9a b9 79 3e 85 d9 cc bd a1 0e 09 3e 61 fb 54 3e
       0.24387208 -0.10002426 0.13384487 0.20799018
000310 02 df 54 3e 3e 32 8d bc fe 16 3a bd 62 6e 86 bd
       0.20788196 -0.017235871 -0.045432083 -0.065640226
000320 bb f1 4c be 18 e0 53 be 3a 40 86 3d a4 9c e3 bc
       -0.20014088 -0.20690954 0.06555219 -0.027784653
000330 ae a9 e9 3d 37 7d e5 bc 14 da 13 3d bf ab 33 3d
       0.11409317 -0.028013809 0.036096647 0.04386496
000340 6f dc 04 3e ab 1a 10 be d6 1a 8b 3a a3 1e 20 be
       0.12974714 -0.14072673 0.0010612856 -0.15636687
000350 7d e2 4f be d2 99 66 be 4a c5 3d 3e ea 41 f1 3d
       -0.20301242 -0.22519615 0.18532291 0.1178015
000360 36 08 6e 3d cc df 40 3e e9 51 83 bc 17 58 d2 b9
       0.0581133 0.18835372 -0.016030269 -0.00040119953
000370 50 ed 51 3e de da 2a 3d 91 73 06 3d 42 99 b3 3d
       0.20500684 0.041712634 0.032825056 0.08769466
000380 f1 e9 4b bc 6e 34 43 3e e7 8e ae 3d c4 05 8e 3d
       -0.012445913 0.19062969 0.0852335 0.069346935
000390 fb f5 9d bd 0f d8 d8 3d 1d e6 6d 3d 67 70 0c be
       -0.07712933 0.10588085 0.05808078 -0.13714753
0003a0 33 ec 53 3d 22 5d b4 3d c3 b3 01 be 88 81 67 be
       0.05173893 0.08806826 -0.1266623 -0.22608006
0003b0 69 b7 4c 3e 01 ea 14 3e e1 50 38 be bb ee 7c 3d
       0.1999184 0.1454239 -0.17999603 0.06175111
0003c0 c1 2c 66 3e 46 21 2a 3d e9 5d 45 be b3 9f de 3d
       0.2247801 0.04153564 -0.19274105 0.10870304
0003d0 d4 f1 69 bd ad 08 75 3e 9b ad 7f bd 80 8b 51 3e
       -0.05711539 0.23929091 -0.062421422 0.20463371
0003e0 8e a2 c2 3d 63 b3 7b 3e 70 6a 23 be 8e e2 56 3e
       0.09503661 0.2458015 -0.15958571 0.20984861
0003f0 de bd ac 3d ed 6c e5 bd 0f 06 13 3e 32 f1 85 be
       0.08434652 -0.112024166 0.1435778 -0.2616058

decoder.bias f4 [80]
000000 60 89 af 3d 8b 42 d6 3d cc 42 6d bd 7f 24 dd 3d
       0.08571124 0.10461911 -0.05792503 0.10797977
000010 07 11 5c 3c 5a 2f 00 3e 75 d7 ee 3d 2d 81 e4 3d
       0.013431794 0.12518063 0.11662189 0.11157451
000020 70 b7 ad bd 0a 3b 93 bd b4 40 e2 bd 3e f2 23 3c
       -0.084822536 -0.07188995 -0.110474974 0.0100064855
000030 56 1a 0a bd 3d d1 cb bb 1b 97 e6 3d 71 1b 4d bd
       -0.033716522 -0.0062200115 0.1125929 -0.050075
000040 7c 69 5b 3d a4 ca a7 3d 52 f7 21 bc 91 ae df bd
       0.053567395 0.081929475 -0.009885626 -0.10921968
000050 78 6a 37 bd c2 a2 d9 3d b2 75 e4 3d 8a cf 81 bd
       -0.04477927 0.10626747 0.11155261 -0.06338413
000060 89 25 9a 3d 93 41 82 bd 1b e7 18 3e c3 71 0d be
       0.075266905 -0.063601635 0.1493191 -0.13812928
000070 eb 5e 2a 3e 52 10 42 bd 5b eb 11 3e 83 dd a8 bd
       0.16637771 -0.047378846 0.14249937 -0.08245375
000080 2e a1 63 3b 05 5b f5 3d 43 e8 ef 3d ec ff c6 bb
       0.0034733522 0.11980251 0.11714222 -0.0060729887
000090 ae b5 99 bd 35 79 6d bc 94 fc cf bd b9 6f 88 bd
       -0.07505356 -0.01449423 -0.10155597 -0.066619344
0000a0 f9 9d 21 3e 17 b1 8a 3d fd 5b ee 3d 7d 14 c0 bd
       0.15782918 0.067720585 0.11638639 -0.09378908
0000b0 8b 2e 3c 3e e9 24 77 bd 6e 6e 2f 3e a6 e8 f1 bc
       0.1837713 -0.060337935 0.1713197 -0.02952988
0000c0 93 86 d7 bd 10 43 94 bc 6a 67 07 3d 69 79 80 3d
       -0.10523715 -0.018098384 0.033057608 0.06273157
0000d0 0a 42 22 3c e6 ad f9 bd c0 6e e6 3d af c6 05 be
       0.00990344 -0.121913716 0.11251593 -0.13064073
0000e0 73 1e d9 bc 5e ad 9e bd e5 0c 9f bd f1 5c 88 bd
       -0.026503777 -0.07747911 -0.07766131 -0.06658352
0000f0 d3 8a d8 bc d6 48 9d bd 14 14 c2 bc 60 98 c3 bd
       -0.026433384 -0.07679908 -0.023691215 -0.095505476
000100 39 6f fe bd 22 76 d4 3d a7 c3 80 3c 25 b9 c0 3d
       -0.12423558 0.103740945 0.015718294 0.094103135
000110 52 46 9d 3d c1 34 f8 3d 90 47 4f bc 2d 64 98 3d
       0.07679428 0.12119437 -0.012651339 0.07440982
000120 38 c5 28 3e 42 2e ee 3d b0 26 8a 3c a5 da 0a 3d
       0.16481483 0.11629917 0.01686415 0.033899922
000130 f6 f2 50 bd 6c 70 d2 3d aa f8 3b 3d bc ea 52 bc
       -0.051012956 0.10275349 0.04589144 -0.012873348
