backend/src/models/CAE3.pth (torch, 8504 bytes, 4 tensors)

encoder.weight f4 [20, 40]
00000000: ff3f 253e 288c ebbd 431c 55be 61d2 5e3d
00000010: 2cb8 753e c78c 773e 65f8 84bd 8488 803e
00000020: cb15 df3c 468d 673d a2c9 b2be e644 2b3d
00000030: a0f8 b83d 88d8 3abe 9517 f23c 9f30 79be
00000040: 17c8 4a3e 16d9 1fbd 34c0 d93d 67e5 383d
00000050: 6eb1 633e 759e 92be 310d 8e3c f4f7 67be
00000060: 93eb bd3c f5ee 8bbc 7edc 033e e843 14be
00000070: 89a4 4fbd aee0 9fbe ed59 44bd b316 ef3d
00000080: 5796 7e3e 57d1 0cbe 75cd 1bbe b2c1 b3bc
00000090: ab62 343e 7973 6abe 228c f1bd 9df9 2abe
000000a0: c53c bebe 7aab 7c3d 05d3 a5bc b4da 6f3c
000000b0: 6ef3 673d eb69 b8bd ea04 b23e d8a9 9cbd
000000c0: 7327 073e bbf0 043e 6b20 b6bb da02 36be
000000d0: d810 64be d336 943e aa65 b63d ab79 06be
000000e0: 5955 2b3e ca1d ebbd 0706 fb3d 64b2 b93d
000000f0: 0547 08be c5ac 463e ff50 513d b4d6 803e
00000100: 6974 043e 3dc1 423e 7146 da3e 85bd a93e
00000110: 2a4c 6b3e dc6b 143e e854 67be ee54 663e
00000120: 5f7f c33e b8e9 3ebe b122 9d3e c465 1fbd
00000130: a719 743d 53bf 0abe 368e 3c3e 3b1b 66bc
00000140: 468c a4bd e51d 473e 68f9 3d3d f0dd efbe
00000150: b5ce 2bbd 316e f5bd a625 cabe 6754 c3bd
00000160: 1fad df3e e4d7 39be 0b78 853d c674 f13d
00000170: ce09 c43e 17e3 1c3c 9c84 ef3d 6d0a 1ebd
00000180: fd5d c6bd 141d bbbd 15b5 9fbe f530 9c3e
00000190: a763 cbbd ed4d 653d 2743 893e a76a 48bd
000001a0: 4bc2 e9bc c3ac a53e 319a f4bd 18fb 913d
000001b0: eb4a fe3c 0240 1c3e 05d4 963d 5b3d 5abe
000001c0: 46de 96be f5c7 1a3e d514 a23d f273 a13e
000001d0: 316b 373e 9b10 b8bd d852 91be 4f5f dabd
000001e0: dd86 52be 8b50 1b3e 3a41 41be 190b 423e
000001f0: a74b 3fbd 6937 2e3e 3653 2f3e d328 87be
00000200: 04c2 3b3e 1df5 3e3c f5d7 babd f559 74bd
00000210: d733 82be 7e1b bdbe 5c4f c8be f42a 9bbe
00000220: 54dc 853d 52ac a5be 54f0 11be db5d 5a3e
00000230: 7956 7dbe 884c 2e3d 38f6 583e 01e2 393d
00000240: 42d0 c9bd 3425 75bc 07b5 9abe bfd6 26be
00000250: c0c3 85bd fd84 ae3d 5f63 6d3e f2eb 723e
00000260: a491 acbe b5c2 afbe 9f07 4ebe 26c9 adbe
00000270: 1136 b4be 464d b13d cda2 92be 478e 123e
00000280: 8d2a 7b3e a3d0 dfbd a93f a03e 418d 903e
00000290: bb7a 84bd 8023 4dbe ff86 c3bd a2c8 773e
000002a0: 7b85 a7bd 89ba 963e 8290 c3bd 67e5 febd
000002b0: f1ab b33e 1c2a aa3e d6d7 e83d 3fff 0dbe
000002c0: bd3a 4f3e 0450 12be d2ea d53c fce1 9c3e
000002d0: a36d cfbd 6b77 023e 0a15 34be 90d3 053e
000002e0: b118 0b3e a610 323e 9ad2 41bc b2cd 8a3e
000002f0: 77a8 1bbd b86a bcbd 8db7 543d f98b ff3c
00000300: 633f 5fbe d709 cbbd 31f9 de3d 6e93 9e3e
00000310: a62b c8bc fb36 4fbe 381b 59bc 3284 8c3d
00000320: d924 d43d 8462 b03d ea4c 74bd 0f50 233e
00000330: d79f 143d 969e 5a3e 0489 203e 0b61 e0bd
00000340: 0477 013e 2a4c 9fbe 8692 993b 4d0a a73d
00000350: 0688 103e c2e5 c1be b64e 71be aa20 1d3e
00000360: a43a 03bd 9dc3 373d 560c 80bd 43c9 babe
00000370: fa1a 3dbe 1ea3 85bd d618 07be 7a7f 343d
00000380: 014a 2bbe 8cb0 e4bd 0dcd 9dbe e761 c43d
00000390: 69d3 2ebe 35c3 503e 4fa8 403e 29a7 ab3d
000003a0: e061 a8be 35a8 293e 6fb4 eebd ef83 f73d
000003b0: 2a17 713e 36b0 b2bd 837c 3c3c ddea aebe
000003c0: 0184 a73d 0974 7f3e d3e9 a2be c712 ef3b
000003d0: e2e6 c6bc 43aa d2bd d334 bcbe 3d6b 4bbc
000003e0: cff9 eebd 77e8 753e 3bf2 41bc 9dd5 d53e
000003f0: e2b0 cb3c ebf5 033e da25 f83d 38e7 03bf
0.16137694 -0.11501342 -0.20811562 0.05439985 0.23996037 0.24174796 -0.0649269 0.25104153
0.027232071 0.056531213 -0.3491946 0.041813754 0.090317965 -0.18246663 0.02955226 -0.24334954
0.1980289 -0.03902539 0.10632363 0.04514065 0.22235653 -0.28636518 0.017340275 -0.2265318
0.02318362 -0.017081717 0.1287708 -0.14479029 -0.050694022 -0.31226104 -0.047937322 0.116742514
0.24862038 -0.13751732 -0.15215094 -0.021942947 0.17615764 -0.22895612 -0.11794306 -0.16696782
-0.37155738 0.06168697 -0.020242224 0.014639545 0.056628637 -0.09004577 0.34769374 -0.076495826
0.13198642 0.12982456 -0.0055580637 -0.17774525 -0.2227205 0.28948078 0.0890611 -0.1313235
0.16731776 -0.11480291 0.12257009 0.090672284 -0.13308342 0.19401844 0.051102635 0.25163805
0.12935032 0.19019027 0.42631868 0.33152404 0.22978273 0.1449427 -0.22590983 0.22493336
0.38183114 -0.18643844 0.3069053 -0.03891541 0.059594776 -0.13549547 0.18413624 -0.014044578
-0.080345675 0.19444998 0.04638043 -0.46849012 -0.041945178 -0.11983908 -0.39481848 -0.09537583
0.43686768 -0.18148762 0.06517037 0.11789851 0.3828873 0.009575627 0.11695215 -0.03858416
-0.096858956 -0.091364056 -0.31192842 0.305061 -0.099311166 0.05598252 0.26809046 -0.048929837
-0.028535029 0.3235837 -0.11943472 0.071279705 0.031041583 0.15258792 0.07364658 -0.21312468
-0.29466456 0.1511534 0.0791413 0.31533772 0.17911984 -0.08987542 -0.28383517 -0.1066271
-0.20559259 0.15167443 -0.18872538 0.18949546 -0.046703007 0.17013325 0.17121586 -0.26398334
0.1833573 0.011655119 -0.09123222 -0.059656102 -0.25430176 -0.36935037 -0.39123046 -0.30306208
0.06536165 -0.32358032 -0.14251834 0.21324866 -0.24740018 0.042553455 0.21187675 0.04538155
-0.09854175 -0.014962483 -0.30216238 -0.16292857 -0.06531477 0.08521459 0.23182438 0.23722818
-0.33704865 -0.34328237 -0.20120095 -0.33942527 -0.351975 0.08657317 -0.28639832 0.14312087
0.2452795 -0.10928466 0.3129857 0.28232768 -0.064687215 -0.20033073 -0.09547233 0.24197629
-0.08179756 0.2943919 -0.09549047 -0.12446099 0.35092118 0.33235252 0.113692924 -0.138669
0.2023725 -0.14288336 0.026112948 0.30641162 -0.101283334 0.12740867 -0.17586151 0.13068986
0.13583638 0.17389163 -0.0118299965 0.27110058 -0.038002457 -0.092000425 0.05193286 0.031194674
-0.21801524 -0.09913986 0.10887373 0.30971855 -0.024434876 -0.20235817 -0.013251118 0.06861152
0.10358591 0.0861254 -0.059643663 0.15948509 0.036285248 0.21349558 0.15677267 -0.109560095
0.12643057 -0.31112796 0.0046866564 0.081562616 0.14114389 -0.37870604 -0.23565182 0.15344492
-0.032038346 0.044864286 -0.06252353 -0.36481676 -0.18467322 -0.06525253 -0.13193068 0.044066884
-0.16727449 -0.11166486 -0.30820504 0.09588986 -0.17072834 0.20386966 0.18814205 0.08381493
-0.32887173 0.16568072 -0.11655509 0.12085711 0.23543993 -0.08725016 0.011504295 -0.3416356
0.081794746 0.24946608 -0.3181902 0.0072959396 -0.024280015 -0.10286381 -0.36759052 -0.012415704
-0.11668741 0.2401446 -0.011837537 0.41764536 0.024864618 0.12886779 0.121165946 -0.51524687

encoder.bias f4 [20]
00000000: 0305 84bb cb3f d53d dadc 683d 4274 2bbe
00000010: b388 de3c c3b5 d3bd 54b4 c63d 6849 3dbe
00000020: 939b 0a3c b148 15be a66d a73d 6312 d53d
00000030: c883 273d a85d 9c3d e68b ea3c b4ea 5cbc
00000040: dda5 d0ba 502d fd3b 545a aa3d 636c fabd
-0.0040289178 0.10412558 0.056851245 -0.16743568 0.027164793 -0.10337403 0.097023636 -0.18485034
0.008459943 -0.14578511 0.08175211 0.104038976 0.04089716 0.07635051 0.028631162 -0.013483692
-0.0015918572 0.007726349 0.0831801 -0.122277044

decoder.weight f4 [40, 20]
00000000: 8ad5 1f3d 4b4b 48be 55c9 49be bb35 573c
00000010: 1300 e33d 3ad7 f6bc c44a 863e 11b6 38be
00000020: d940 a6bd e189 17be 3ecc 4e3d 8beb 563d
00000030: 2d77 853e de5f 553d 0a95 1cbe c114 0abe
00000040: 9294 f13d f62a 74be 3f06 ec3d b355 b43e
00000050: 7ab0 0abd dbac 653e 901f 0d3e c269 e6bd
00000060: 9924 2ebe fa72 f93d 1a93 ce3e 93ac 1fbe
00000070: 412c b8bd b25b 56bd 6a89 41be 0b3a 313e
00000080: d2d2 5dbe c57f 513e 413c b23e 48cf aa3e
00000090: 62f8 58be 7463 ba3e 69ef 05be 004b dbbd
000000a0: 01dc c93c c10a 68be f548 83be bd82 133e
000000b0: 7210 70be 2555 bb3e c902 f93d 3ea3 ff3d
000000c0: 1fa1 103e 16f5 8f3e c6b2 b83e 2447 fc3d
000000d0: c685 073e d2cc febd 7060 7d3e ed37 463d
000000e0: dbdb b33e c14a 023e 113c 96bd 1256 86be
000000f0: a0a8 96bd c514 d7bd 9442 413d f43e cbba
00000100: e445 eb3d 50a2 3bbe 9cbb 04bd fb3f 8ebd
00000110: d7e1 31be 26ce bc3d 3b84 323e ca1e b73e
00000120: 0cad a8bd 9130 bf3c b4ab 9dbc 41ab 833d
00000130: 2922 233e 2d8c 053e aaad bdbc d5c6 25bd
00000140: abdc b23c 4d31 743e a04e 15bd 7030 d53d
00000150: 2286 773e 9528 af3d 30ca b43d ea9f 2ebe
00000160: 1035 0f3e 8877 ac3d b084 9f3e 1a65 11be
00000170: a15c 2abe e859 1a3e 8aeb d3bd 4d48 0c3d
00000180: 085a 16be dab2 a43d cab9 123c 3bf7 4e3e
00000190: 8176 913d 748f 7d3e e222 5cbc c06c 013d
000001a0: 6cb1 7bbe ed0f 6dbe 1f93 9c3e 09c9 30be
000001b0: 2d35 4bbe 8483 613e d211 623e 5466 3e3e
000001c0: afde 21bd f47f 0cbe 3a14 5bbe 95b3 bb3e
000001d0: 853b a13e 314a 383e 61e7 3b3e 1567 64be
000001e0: 4275 803e 24eb c83e 700c 893d 055d f2bd
000001f0: e63d 91be 4907 a83e 47d3 d3be 0b53 05be
00000200: 83c9 c6bc 20cf 443e 7a7e 28be 0c02 78bc
00000210: ff15 2d3e f751 34be 7f6d 57be 9f56 cc3e
00000220: ddf2 77bd 04f8 3b3e 8d23 913d ee31 75be
00000230: 7a3d eb3c 71bd edbd 6453 99bc e99a 27be
00000240: 2df0 32bb d232 7e3e 7e13 693e 5202 903e
00000250: efb2 4fbe e16f 3dbe f9ea 3cbe 88a5 1e3e
00000260: 1b58 a63e cd90 50be e4b6 0fbe bdec 7d3e
00000270: 507a 4d3e 9e84 8d3e 794c d53d f015 673e
00000280: 9123 9c3d 399f ac3d 5c4d bd3d 349f 7e3e
00000290: c62e 643e d3d6 313d 5972 cebc 8eb5 8fbd
000002a0: d325 8ebe 7bc2 52be 1a95 aebd 5138 76be
000002b0: 0503 adbc f2c5 b13d a8ef c6bd eb9c 743e
000002c0: 7709 a03e 5733 65be 5c39 093e a864 8e3e
000002d0: 7b22 75bd c64b 7ebd edd9 903e 6924 a33e
000002e0: 0b68 fe3d d2fd 31be 2737 e53d d494 88be
000002f0: ae09 84be 9143 0dbe 0460 3dbd c8d8 453e
00000300: aa37 443d c2fc 263c e61a 55be 38fa 37be
00000310: a4e7 bc3e 1e59 57be 0e0a 4abd 7d74 953d
00000320: d4de 0dbe 5dc4 ab3e 3d0c 42be 6683 03be
00000330: 5896 6e3e 9b2c dbbb 2d29 223e bf41 67bc
00000340: 99f3 ac3a a370 643e ab25 fb3c e91d 0abe
00000350: 9057 763e f7c6 fcbd 0a50 b4bd 7cca cebc
00000360: 4572 df3c 11d9 23be ae76 0e3e 0cb8 3bbe
00000370: ed39 103e ede3 b53e abc0 143e 4be1 50be
00000380: 9e76 c13e 22fc 6abd cf7e 843e a924 713d
00000390: 22e4 5d3e 248a aa3d 629b 7abc 5fd8 fbbd
000003a0: de89 8a3e c53a 733d 49e2 7ebe f2a7 45bd
000003b0: 88fc f3bd 7a58 b3bd f0b6 643d bcad 6fbd
000003c0: e8dd 2c3e bdfc 573e e76f 4e3e bf59 ad3d
000003d0: 8059 ab3c af70 a93e 77b0 5c3e 9d90 aebc
000003e0: 67cc ab3e fb92 dd3d 3863 a43e d56b 1cbe
000003f0: 21d6 003e 72d3 12be d4f6 94bd 86c5 663e
0.039022006 -0.19559972 -0.19705708 0.013135369 0.110839985 -0.030131925 0.26228917 -0.18038203
-0.081178375 -0.1479869 0.05048775 0.052470725 0.26067486 0.05209338 -0.15291229 -0.1348448
0.11795916 -0.23844513 0.11524629 0.35221633 -0.033859707 0.2242922 0.13781571 -0.112506405
-0.17006148 0.12180133 0.40346605 -0.15593176 -0.08992816 -0.05233354 -0.18900076 0.17307298
-0.21662453 0.20458896 0.34811595 0.33361268 -0.211885 0.36404002 -0.13079609 -0.107076645
0.024641039 -0.22660352 -0.256416 0.14405341 -0.23443773 0.36588398 0.12158734 0.12482308
0.14123963 0.28116673 0.36073893 0.123182565 0.13234624 -0.1244141 0.24743819 0.04839318
0.35128674 0.12723829 -0.073356755 -0.2623754 -0.073563814 -0.10502008 0.047182634 -0.0015506432
0.1148794 -0.18323636 -0.03240548 -0.06945797 -0.17371307 0.09219007 0.17433254 0.35765678
-0.08236131 0.023338588 -0.019246913 0.064291485 0.15931 0.13041754 -0.023154099 -0.040472824
0.021833738 0.23846932 -0.036451936 0.10409629 0.24172261 0.08552662 0.08827627 -0.1705319
0.13985085 0.08421236 0.3115592 -0.14198723 -0.16636898 0.15073359 -0.1034766 0.03424864
-0.14682782 0.08041926 0.008955428 0.20211498 0.07102681 0.24761754 -0.013436051 0.031597853
-0.245794 -0.23150606 0.30580994 -0.17264189 -0.19844504 0.22022825 0.2207711 0.18593723
-0.03951901 -0.13720685 -0.21394435 0.36660448 0.31490722 0.17997052 0.18349983 -0.22304948
0.2508946 0.39241898 0.066918254 -0.11834148 -0.28367537 0.32818058 -0.4137213 -0.1301996
-0.02426601 0.19219637 -0.16454497 -0.015137207 0.16902922 -0.17609392 -0.21037863 0.39909837
-0.060534347 0.18356329 0.07086859 -0.23944828 0.028715838 -0.11608399 -0.018716522 -0.16367687
-0.00273038 0.24824074 0.22761342 0.2812677 -0.20283101 -0.1849971 -0.1844901 0.15492833
0.32489094 -0.20367737 -0.14034611 0.2479734 0.2006619 0.2764024 0.104149766 0.22566962
0.07623971 0.08428807 0.09243271 0.24865419 0.22283468 0.043417763 -0.02520101 -0.07017051
-0.27763233 -0.20582001 -0.085245326 -0.2404492 -0.021119604 0.08680333 -0.097136796 0.23887984
0.3125722 -0.22382866 0.13400787 0.2781117 -0.059847336 -0.062083982 0.28291264 0.31863716
0.12422188 -0.17381981 0.1119216 -0.26676047 -0.25788635 -0.13795306 -0.046234146 0.19320977
0.047904648 0.010192098 -0.20811042 -0.17966545 0.36895478 -0.2103009 -0.049325995 0.07297609
-0.13854533 0.3354825 -0.18949981 -0.12843093 0.23299539 -0.006688667 0.1583602 -0.014114796
0.0013195156 0.22308592 0.03065761 -0.13487972 0.2405684 -0.12342637 -0.08804329 -0.025243036
0.027276168 -0.16000773 0.1391246 -0.18331927 0.14084597 0.35525456 0.14526622 -0.20398442
0.3778581 -0.05736936 0.25877997 0.058872852 0.21669057 0.083271295 -0.015295835 -0.12297129
0.2705831 0.05938222 -0.24891008 -0.04825587 -0.11913401 -0.0875711 0.055838525 -0.058515295
0.16881526 0.21092506 0.20159875 0.08464383 0.0209167 0.33093783 0.21551691 -0.021309191
0.33554384 0.1081905 0.32106948 -0.1527551 0.12581684 -0.14338472 -0.07273641 0.22536287

decoder.bias f4 [40]
00000000: 0d6e 4d3e c0c1 1e3e 5c20 14be 67bd b63d
00000010: f463 173e 7e56 bf3d d4d5 883e 6c04 9d3b
00000020: afbf 71bd e27a 493e 0290 f2bd 86c8 9fbd
00000030: 653f bebd b5c3 3bbd 4141 22bd ecd0 ffbd
00000040: c0b0 423d d7ef 0a3e fb6e 743e d561 2bbd
00000050: 2d74 98bd e461 663e c777 613e 4480 4f3e
00000060: 675d 0ebc 0dba 9d3d b37d 09be b931 37be
00000070: fec0 5bbe 41cd b83d 89fc ec3d 7712 843e
00000080: 00b7 053e cd3c 95bd 3e2f e33c a02c 283e
00000090: 929e b43d a24e 9e3e b3e0 653d fc6d 303e
0.20061512 0.15503597 -0.14465469 0.089228444 0.14784223 0.09342669 0.26725638 0.004791787
-0.059020694 0.19675782 -0.118438736 -0.07801919 -0.09289435 -0.045840938 -0.039613012 -0.124910206
0.047531843 0.13568054 0.2387046 -0.041841347 -0.07444034 0.2249828 0.22018348 0.20263773
-0.008689261 0.07701502 -0.13426857 -0.17890061 -0.2146034 0.09023524 0.11571605 0.25795338
0.1305809 -0.072869875 0.027732488 0.16423273 0.088193074 0.30919367 0.056122493 0.17229456
