backend/src/models/SCAE_GC.pth (torch, 73184 bytes, 18 tensors)

cae1.encoder.weight f4 [80, 37]
0.14451559 -0.00028232782 -0.379321 0.30940625 0.09313273 0.1429356 0.25423723 0.020887738
-0.42125306 0.33003348 -0.06290119 -0.011820985 -0.14379154 -0.03947261 0.16144785 0.17858075
0.013142247 0.16229773 -0.12917818 0.014480001 -0.15872929 -0.2599279 -0.0022905376 0.117260076
0.038098168 -0.011494338 0.16897245 -0.03766275 -0.19074568 0.2952884 -0.0804495 0.12537457
0.016848065 0.07888671 0.22324495 0.07375767 0.22489545 -0.3057162 -0.41489375 -0.29929566
0.2633485 0.17258842 0.14986259 -0.15508246 -0.017450126 -0.056094233 -0.17301081 0.0070265345
0.19159782 -0.08569254 0.072411716 -0.048520077 -0.007187217 0.07195983 -0.0001322174 -0.01875562
-0.0948064 -0.14205109 -0.120420225 0.020643944 -0.22272496 0.12742992 -3.1239993e-05 -0.09430926
0.014621838 0.034246072 0.06603068 -0.099467695 -0.05596315 -0.042446762 0.075917125 0.24269214
-0.007125346 -0.15436746 -0.013983815 -0.3090356 0.29050398 -0.18496354 -0.090955175 0.24210101
0.26664987 -0.39323747 -0.04233446 -0.07232317 -0.04558858 0.21842343 0.23231791 0.03155332
0.21491878 -0.08119149 0.15004563 0.12683786 0.088858336 0.14557245 0.14735661 -0.0009736192
0.068716854 0.06806855 -0.059696455 -0.27241 0.0975478 -0.14182566 -0.02713303 0.13361907
0.12310535 -0.15628433 0.23429455 -0.054359198 -0.05120238 -0.0096170185 0.052486587 -0.02171345
0.2085375 0.3834028 0.11466189 -0.3692318 -0.14895047 -0.096306 0.15460712 0.1945872
-0.06526363 -0.092499055 -0.004574657 0.010788646 -0.098344184 0.038191933 -0.0133194 -0.12410979
0.24537648 0.07378471 -0.21702662 0.22875625 0.010242154 -0.23359498 0.0038196472 0.19758847
-0.035490125 0.21237524 -0.06533205 0.030417485 -0.07330678 -0.15852134 0.063846126 0.25114253
0.16454878 -0.21333025 -0.04480164 -0.17894259 -0.041275255 -0.060426917 -0.4201546 0.29016545
-0.054927308 -0.45651302 -0.092613205 -0.0070725246 -0.11094151 -0.17858768 -0.12519863 0.13685104
-0.087997034 0.041955173 -0.14136277 0.116955966 0.11424456 0.019548338 -0.07213329 -0.071653746
-0.19478945 -0.091773346 -0.071870856 0.10539674 -0.19410633 -0.33898863 0.061943278 0.13087721
-0.001396444 0.04840269 -0.09871591 0.13834178 -0.056515917 0.24542111 -0.23491737 -0.10729658
-0.18032826 0.17816344 -0.13296023 0.24955651 -0.23678416 0.015614455 -0.4164179 -0.008809166
0.33805504 -0.11517395 0.10560542 -0.016643316 -0.0018502346 0.04470112 0.006648367 0.040579066
0.11575768 -0.007995028 0.013892304 0.0070290803 0.053253196 0.16717477 0.18943545 0.22142674
0.05818083 -0.039427888 0.3099543 -0.1472641 0.2733711 -0.021987682 0.0066862763 -0.059609126
-0.1732722 0.051134817 0.07006628 -0.07279148 0.21964616 0.12402587 -0.29167134 0.35758767
0.08670501 0.3721454 0.13020563 0.040386397 0.34180117 -0.3245709 -0.36087728 -0.007893272
0.053330004 0.031076265 0.14815506 0.21736118 0.04484597 -0.04578501 -0.114970155 0.1466667
-0.20689702 -0.11595502 0.12932836 -0.007829181 -0.042202387 -0.26366493 -0.10336505 0.12675913
-0.015432455 0.0019869537 -0.09648245 -0.12979783 0.20066702 -0.09217996 -0.19929129 0.097765334
00000000: e5fb 133e 6605 94b9 5d36 c2be 7f6a 9e3e
00000010: 5fbc be3d b65d 123e 622b 823e c31c ab3c
00000020: 7bae d7be 26fa a83e 57d2 80bd ceac 41bc
00000030: 173e 13be 08ae 21bd 9652 253e dfdd 363e
00000040: 9452 573c 6031 263e 4947 04be 873d 6d3c
00000050: ee89 22be 4515 85be d81c 16bb 0d26 f03d
00000060: d30c 1c3d bf52 3cbc 1d07 2d3e 4144 1abd
00000070: d652 43be 0b30 973e b5c2 a4bd 3162 003e
00000080: f404 8a3c 5b8f a13d 539a 643e 430e 973d
00000090: fe4a 663e d586 9cbe f46c d4be 483d 99be
000000a0: 9dd5 863e 05bb 303e 9475 193e f0cd 1ebe
000000b0: 91f3 8ebc 11c3 65bd bf29 31be d83e e63b
000000c0: 3832 443e 927f afbd 984c 943d fdbc 46bd
000000d0: bf82 ebbb ad5f 933d d7a3 0ab9 63a5 99bc
000000e0: dc29 c2bd d775 11be e19e f6bd 7d1d a93c
000000f0: 0312 64be fd7c 023e b007 03b8 3725 c1bd
00000100: 6f90 6f3c 9c45 0c3d 183b 873d b8b5 cbbd
00000110: 9e39 65bd a8dc 2dbd 707a 9b3d 4a84 783e
00000120: bc7b e9bb 8112 1ebe 5f1c 65bc ea39 9ebe
00000130: f0bc 943e 1567 3dbe b546 babd 54e9 773e
00000140: 5586 883e 6c56 c9be e666 2dbd 2c1e 94bd
00000150: 17bb 3abd 64aa 5f3e bfe4 6d3e 0e3e 013d
00000160: ab13 5c3e b947 a6bd 90a5 193e c9e1 013e
00000170: 5cfb b53d f210 153e a7e4 163e 7a3a 7fba
00000180: 6cbb 8c3d 8667 8b3d 4584 74bd 5379 8bbe
00000190: 24c7 c73d bf3a 11be 1746 debc 70d3 083e
000001a0: a81e fc3d 0009 20be e9ea 6f3e c0a7 5ebd
000001b0: 96b9 51bd b390 1dbc 2dfc 563d 68e0 b1bc
000001c0: db8a 553e 5f4d c43e dad3 ea3d f30b bdbe
000001d0: 7986 18be 153c c5bd 5451 1e3e de41 473e
000001e0: f0a8 85bd 2570 bdbd 01e7 95bb dcc2 303c
000001f0: ad68 c9bd 256f 1c3d 9d39 5abc 462d febd
00000200: f943 7b3e 701c 973d 3a3c 5ebe 143f 6a3e
00000210: b5ce 273c 8633 6fbe 0c53 7a3b a254 4a3e
00000220: 185e 11bd e578 593e cfcc 85bd 172e f93c
00000230: dd21 96bd 6b53 22be c2c1 823d c195 803e
00000240: 7a7f 283e 3f73 5abe ed81 37bd ba3c 37be
00000250: 3e10 29bd 3782 77bd 811e d7be 9190 943e
00000260: 75fb 60bd 13bc e9be feab bdbd a3c0 e7bb
00000270: 4d35 e3bd b0df 36be 1234 00be ae22 0c3e
00000280: ca37 b4bd 30d9 2b3d 67c1 10be 9c86 ef3d
00000290: 0df9 e93d d623 a03c 9eba 93bd 33bf 92bd
000002a0: e376 47be aaf3 bbbd 0731 93bd 3fda d73d
000002b0: cfc3 46be eb8f adbe 3cb8 7d3d ad04 063e
000002c0: e308 b7ba e641 463d 912b cabd 78a9 0d3e
000002d0: 3c7d 67bd ac4f 7b3e 2e8e 70be 4fbe dbbd
000002e0: f9a7 38be 7a70 363e ba26 08be be8b 7f3e
000002f0: 8c77 72be c5d3 7f3c ba34 d5be 5254 10bc
00000300: 8d15 ad3e 52e0 ebbd a847 d83d 9057 88bc
00000310: 9283 f2ba 8618 373d 8bda d93b 3c36 263d
00000320: 5d12 ed3d 94fd 02bc 8c9c 633c 3354 e63b
00000330: 0620 5a3d dd2f 2b3e 5efb 413e b1bd 623e
00000340: 064f 6e3d 237f 21bd 54b2 9e3e 66cc 16be
00000350: 4cf7 8b3e 831f b4bc 8d18 db3b b328 74bd
00000360: 456e 31be be72 513d e97e 8f3d b313 95bd
00000370: ecea 603e 4601 fe3d f255 95be bb15 b73e
00000380: 6592 b13d d889 be3e a054 053e 356c 253d
00000390: 9000 af3e 282e a6be e8c4 b8be c852 01bc
000003a0: 9070 5a3d a793 fe3c f6b5 173e ee93 5e3e
000003b0: 68b0 373d 1089 3bbd 7975 ebbd cc2f 163e
000003c0: d0dc 53be d379 edbd a76e 043e f745 00bc
000003d0: 69dc 2cbd 17ff 86be 0eb1 d3bd 25cd 013e
000003e0: 68d8 7cbc 8d37 023b 9798 c5bd b9e9 04be
000003f0: a87b 4d3e d9c8 bcbd 0413 4cbe 3139 c83d

cae1.encoder.bias f4 [80]
0.122236826 -0.08886878 0.09122626 -0.05465361 0.14959648 -0.06981767 0.11464031 -0.102639206
0.08942351 -0.018544517 0.069707185 -0.05144239 -0.086025745 -0.04698532 0.074101225 -0.12131246
-0.032919914 -0.0007745202 -0.19993374 -0.094135605 0.07575029 0.038768154 0.08992395 0.041727655
0.029358093 -0.12450674 -0.24350452 -0.19679391 -0.27600262 0.12906449 0.041333355 0.18598816
-0.045064945 0.08934017 -0.047561273 0.08341156 -0.0654654 0.09223448 0.01027931 -0.026062999
-0.13088834 0.14996414 -0.1446093 -0.041651074 0.026696132 0.0713324 0.024456823 -0.052463405
0.15795174 0.10596067 -0.15127689 -0.046433594 -0.13680018 -0.049882095 0.06208344 -0.13636026
0.08824803 0.03245251 -0.0025666908 -0.06708546 0.034275077 -0.04793161 -0.054219022 -0.15741795
-0.037255447 0.052351024 0.14259614 -0.18562429 -0.047520287 -0.042273995 -0.13668233 -0.053183354
-0.049715273 0.082307644 -0.06116123 0.1693894 -0.019030785 -0.10548524 -0.0256931 0.050880734
00000000: 4d57 fa3d d600 b6bd d5d4 ba3d 77dc 5fbd
00000010: d22f 193e 91fc 8ebd 8ac8 ea3d 8134 d2bd
00000020: ac23 b73d acea 97bc a4c2 8e3d 41b5 52bd
00000030: 442e b0bd ae73 40bd 62c2 973d ab72 f8bd
00000040: 08d7 06bd 2c09 4bba 6ebb 4cbe 2bca c0bd
00000050: f822 9b3d 5bcb 1e3d 0c2a b83d 9eea 2a3d
00000060: 6280 f03c 64fd febd 4059 79be 5884 49be
00000070: 3750 8dbe 7b29 043e 2a4d 293d ae73 3e3e
00000080: 0596 38bd fbf7 b63d 9ccf 42bd aed3 aa3d
00000090: b912 86bd 6ee5 bc3d 8d6a 283c 1282 d5bc
000000a0: 9807 06be 3390 193e 7614 14be 519a 2abd
000000b0: d9b1 da3c b916 923d ad59 c83c dee3 56bd
000000c0: 1abe 213e e801 d93d 54e8 1abe 2731 3ebd
000000d0: 5915 0cbe 2b51 4cbd 354b 7e3d 06a2 0bbe
000000e0: 62bb b43d ecec 043d ed35 28bb 1a64 89bd
000000f0: 0664 0c3d f053 44bd c414 5ebd 2c32 21be
00000100: 2b99 18bd 076e 563d b904 123e 4b14 3ebe
00000110: a2a4 42bd 7f27 2dbd 74f6 0bbe cad6 59bd
00000120: 3ea2 4bbd e990 a83d 3384 7abd 6a74 2d3e
00000130: 73e6 9bbc a508 d8bd 567a d2bc 5168 503d

cae1.decoder.weight f4 [37, 80]
0.046356134 -0.31623587 -0.1347794 0.14822389 -0.025227055 0.2777558 -0.17671081 0.15041344
-0.21878704 -0.13210636 -0.3164501 0.12594517 -0.15379123 -0.0016022102 0.09300626 -0.20698978
0.2925241 0.27803484 0.44655627 -0.36084148 -0.2760394 -0.031252086 -0.23468249 0.11869612
-0.30756178 0.27892944 0.3602884 0.3574173 0.29712412 0.3918797 0.14235228 0.06425077
-0.09393015 -0.19267508 0.12166991 -0.32705536 0.12167142 0.16350001 -0.22914742 -0.17898297
0.34140605 -0.11570581 0.11832562 -0.29759994 0.27814475 0.05862298 0.36270764 -0.36853343
-0.29061764 0.2877312 0.04799879 -0.12650447 -0.25637034 0.40668783 -0.3321995 0.2582461
-0.2331007 0.16713877 0.24861552 0.24072959 -0.3399903 0.09474926 -0.24548481 0.12360315
-0.39196292 -0.13915195 -0.29840204 0.3686156 -0.12997755 0.05809525 0.012166341 -0.29985586
0.30004475 0.3351528 -0.36557284 -0.124085516 0.28964707 -0.2182003 0.10635851 0.039756685
-0.10550528 -0.36592856 -0.2268143 0.2057125 -0.021298286 -0.14309298 0.20288947 -0.40968534
0.2187087 0.18670242 0.08433737 -0.1814151 0.19485766 -0.03303411 0.34938627 0.2612595
0.19026242 -0.24855718 0.38598445 -0.18312047 -0.13047035 -0.099230066 0.25088117 0.20221718
0.249384 0.20459348 -0.14023548 -0.25048587 -0.21303387 -0.012073001 -0.11248151 0.20044777
0.21823296 0.24824739 0.14549245 0.18716323 0.2987886 -0.25304165 -0.19362254 0.1890143
0.2896924 0.112048276 -0.20782676 -0.056863513 0.41178662 -0.31665677 -0.033824094 -0.12179464
-0.27451748 0.04943992 -0.00069031096 -0.16687565 0.12023218 -0.13653444 -0.27170858 -0.059035752
-0.29749492 0.12239267 -0.068320304 0.16213281 0.22416246 -0.23799783 -0.03352028 -0.18457873
-0.16640343 -0.027206508 -0.16323219 0.034295168 -0.16331464 0.10417555 -0.24351928 0.08449823
-0.11796794 0.01269261 0.2793752 0.14044544 -0.008317095 -0.21150015 0.3020057 0.33566025
-0.2985833 -0.3315466 0.23224281 0.23880859 -0.26996958 0.20642917 0.15241857 0.103918225
0.19018191 -0.27518442 -0.20094258 -0.34597272 0.24284947 0.18214639 -0.07116177 0.29101905
0.050052114 0.19726321 -0.20434946 0.010464055 0.027276577 0.13867655 -0.26733094 0.19493687
-0.21095006 0.36026534 -0.1493674 -0.18397617 -0.32905963 0.09632467 -0.25387153 -0.06317768
-0.04703994 0.09673508 0.23685905 0.011448168 -0.11588004 -0.17132701 -0.24516147 0.10718078
0.18429428 -0.12289363 0.027599156 0.076460026 0.24786367 0.030631078 0.2486412 -0.17926103
0.10293421 -0.152286 -0.24691108 0.21462071 -0.23362333 0.09747293 0.16150801 0.10649298
0.25267518 0.23150325 0.07209314 -0.43047947 -0.002931171 -0.39817083 -0.08587835 0.051050324
0.14833084 -0.02260492 -0.116913855 0.24913311 0.17212887 -0.21969156 0.07445569 0.0990133
-0.18954328 -0.22473252 0.11209321 -0.34550017 0.110086195 -0.04625241 -0.16655822 0.2749561
0.25087145 0.25897923 -0.17379677 0.14534754 0.27424422 -0.17078225 0.2455303 -0.27501872
0.21718654 -0.0027458959 -0.038732745 0.13209097 -0.3217159 0.1943884 -0.19952013 0.19221279
00000000: eedf 3d3d abe9 a1be 9c03 0abe 01c8 173e
00000010: f8a8 cebc 0236 8e3e aef3 34be fb05 1a3e
00000020: b609 60be e446 07be bf05 a2be c5f7 003e
00000030: 737b 1dbe 4101 d2ba 117a be3d 21f5 53be
00000040: b8c5 953e 955a 8e3e 06a3 e43e 37c0 b8be
00000050: 0955 8dbe 3002 00bd 9b50 70be f416 f33d
00000060: bd78 9dbe d7cf 8e3e b977 b83e 66ff b63e
00000070: a720 983e 75a4 c83e ccc4 113e e895 833d
00000080: 735e c0bd 9e4c 45be 132e f93d cd73 a7be
00000090: de2e f93d 8c6c 273e 9fa5 6abe 5047 37be
000000a0: c6cc ae3e 2bf7 ecbd b454 f23d 055f 98be
000000b0: fd68 8e3e a61e 703d d1b4 b93e 6ab0 bcbe
000000c0: d6cb 94be 8151 933e 619a 443d 638a 01be
000000d0: f942 83be 6339 d03e 0e16 aabe d538 843e
000000e0: f3b1 6ebe 6d26 2b3e 1195 7e3e d181 763e
000000f0: 3513 aebe e60b c23d 5f60 7bbe a623 fd3d
00000100: 5daf c8be d97d 0ebe 27c8 98be 2fbb bc3e
00000110: d618 05be 49f5 6d3d 5555 473c b586 99be
00000120: 779f 993e 2699 ab3e 5d2c bbbe 8c20 febd
00000130: 9f4c 943e e66f 5fbe 7ed2 d93d e8d7 223d
00000140: 2713 d8bd fd5a bbbe 0242 68be 4ca6 523e
00000150: be79 aebc f786 12be 42c2 4f3e 47c2 d1be
00000160: 2cf5 5f3e eb2e 3f3e 12b9 ac3d e1c4 39be
00000170: c488 473e c64e 07bd c2e2 b23e cec3 853e
00000180: 27d4 423e c685 7ebe c19f c53e ef83 3bbe
00000190: 059a 05be 2239 cbbd 7f73 803e 0512 4f3e
000001a0: 855e 7f3e f480 513e e499 0fbe af3f 80be
000001b0: 8d25 5abe d6cd 45bc b55c e6bd 2e42 4d3e
000001c0: 7678 5f3e 9034 7e3e f9fb 143e b8a7 3f3e
000001d0: d2fa 983e ad8e 81be fd44 46be f78c 413e
000001e0: 9052 943e 9179 e53d 8ad0 54be b7e9 68bd
000001f0: b2d5 d23e d620 a2be 228b 0abd 786f f9bd
00000200: 8e8d 8cbe 8381 4a3d fcf5 34ba 73e1 2abe
00000210: 4a3c f63d afcf 0bbe 631d 8bbe 79cf 71bd
00000220: 4151 98be 02a9 fa3d 84eb 8bbd 2506 263e
00000230: d88a 653e b4b5 73be 904c 09bd 3502 3dbe
00000240: a965 2abe 2fe0 debc 5726 27be 1779 0c3d
00000250: f43b 27be fe59 d53d 1e5d 79be 680d ad3d
00000260: 2d99 f1bd aaf4 4f3c 440a 8f3e eed0 0f3e
00000270: 6d44 08bc 7f93 58be 7ea0 9a3e a9db ab3e
00000280: e9df 98be 7ac0 a9be 0fd1 6d3e 3d8a 743e
00000290: 7439 8abe 2b62 533e 9d13 1c3e 14d3 d43d
000002a0: 0cbf 423e f9e4 8cbe e4c3 4dbe 5623 b1be
000002b0: 88ad 783e 9584 3a3e 43bd 91bd 7300 953e
000002c0: 7203 4d3d 5eff 493e fc40 51be 6e71 2b3c
000002d0: 2173 df3c 3a01 0e3e 9adf 88be 889d 473e
000002e0: 4b03 58be b374 b83e c5f3 18be 4064 3cbe
000002f0: 817a a8be de45 c53d 73fb 81be 4d63 81bd
00000300: f4ac 40bd 0b1d c63d 2e8b 723e 1991 3b3c
00000310: 8452 edbd 5970 2fbe 9c0b 7bbe 9981 db3d
00000320: a4b7 3c3e a8af fbbd a017 e23c 1397 9c3d
00000330: f9cf 7d3e 07ee fa3c cc9b 7e3e 3490 37be
00000340: 2ccf d23d dcf0 1bbe 42d6 7cbe 88c5 5b3e
00000350: f43a 6fbe e39f c73d 5b62 253e fe18 da3d
00000360: a45e 813e 300f 6d3e 91a5 933d ce67 dcbe
00000370: e418 40bb 0cdd cbbe fde0 afbd 251a 513d
00000380: 0ae4 173e f42d b9bc 8870 efbd c01c 7f3e
00000390: 8d42 303e d3f6 60be 3a7c 983d 7cc7 ca3d
000003a0: a217 42be 4820 66be 2091 e53d 66e5 b0be
000003b0: df74 e13d 2b73 3dbd 3d8e 2abe 0cc7 8c3e
000003c0: 3972 803e ed98 843e c8f7 31be fcd5 143e
000003d0: bd69 8c3e 8be1 2ebe 4c6c 7b3e 41cf 8cbe
000003e0: 2666 5e3e 7df4 33bb 3aa6 1ebd db42 073e
000003f0: f2b7 a4be c10d 473e 014f 4cbe 6ed3 443e

cae1.decoder.bias f4 [37]
0.12941922 -0.07944466 0.07022702 -0.110972784 -0.052232955 0.039812196 -0.023904454 -0.034678165
0.06390339 -0.06531885 0.07822649 0.043125827 0.103030264 -0.0030996248 -0.07958503 -0.07927733
0.05795464 0.116684146 0.10955644 0.024881704 0.016913226 -0.033196468 0.06918781 0.06533436
0.023227086 -0.077035904 -0.060095854 -0.06920503 -0.0779849 -0.03580611 0.055274297 0.10010809
-0.0370331 -0.057568785 -0.026021095 0.017803244 -0.10055802
00000000: 7986 043e e2b3 a2bd 2fd3 8f3d b345 e3bd
00000010: 39f2 55bd 1d12 233d 46d3 c3bc b10a 0ebd
00000020: c8df 823d e4c5 85bd 3635 a03d b5a4 303d
00000030: 8801 d33d 1323 4bbb 7afd a2bd 275c a2bd
00000040: d861 6d3d 19f8 ee3d 205f e03d b7d4 cb3c
00000050: 9b8d 8a3c 05f9 07bd 57b2 8d3d 05ce 853d
00000060: bb46 be3c 00c5 9dbd 1227 76bd 5ebb 8dbd
00000070: 8cb6 9fbd 6da9 12bd 4d67 623d 7805 cd3d
00000080: 05b0 17bd 3fcd 6bbd 312a d5bc 1cd8 913c
00000090: 5df1 cdbd

cae2.encoder.weight f4 [40, 80]
0.10586955 -0.074613325 -0.17832969 0.02109259 -0.11676516 -0.26490417 -0.03692423 -0.11836492
-0.082506776 -0.10642659 -0.1685822 0.12885061 0.24826089 0.15422362 0.12644766 -0.008867354
-0.025446776 -0.1486319 0.04282894 -0.07799618 -0.014519821 -0.21560818 -0.11790777 0.052603852
-0.07078015 -0.17345446 -0.06283281 -0.28234044 -0.12060435 0.14874426 -0.08154858 0.035488177
0.053988226 0.0110156415 -0.06764641 0.025765443 -0.014918614 -0.08408155 0.12927882 0.06704134
-0.17231889 0.05921424 0.050416756 0.032087784 0.121249266 -0.16093737 -0.17347649 -0.0016036017
-0.050700583 -0.050908405 0.12723404 -0.037344106 0.013091425 -0.019999253 0.077217735 -0.13470286
-0.18705072 0.11047305 0.15091263 0.17903127 -0.032718804 0.037806273 0.015493271 -0.22058271
0.16503951 0.0031465357 -0.045685567 -0.1437188 0.17203274 -0.02747843 0.08769776 -0.15276496
-0.079662696 0.12745553 0.21058996 -0.038570482 0.13144664 -0.07059808 -0.022364713 0.0353774
0.16844383 0.041039214 -0.13633741 0.09268493 -0.068669975 0.029611265 0.17163934 -0.20083366
-0.16341783 0.041300822 -0.033673704 0.17951888 -0.12354906 -0.021599922 -0.058405668 0.07546524
-0.03002438 0.15897262 -0.11803934 0.23810114 0.19365846 -0.07181097 0.2600024 -0.16271564
0.08684488 0.055502787 -0.089547835 -0.17718565 0.23378466 0.09837022 -0.13625792 -0.07156529
0.034301024 0.12077867 -0.13861994 0.012504076 0.0085233785 0.016089795 -0.07845378 0.023952438
0.0760747 -0.058158837 -0.15105101 -0.07135637 0.00576823 -0.11576261 -0.121487096 0.19774729
-0.18402934 -0.13060285 -0.09970641 0.16147216 0.19239278 -0.18119344 -0.08837023 0.16799718
-0.046058305 0.10888443 -0.11831265 -0.12501104 0.139097 -0.15612309 -0.05158768 0.111412555
0.10357174 -0.027098384 0.16058002 -0.074936286 0.104027905 0.029332576 0.024948409 0.18237191
0.19332878 -0.15049645 -0.08555268 -0.0039743884 0.044141114 -0.09526902 -0.17711727 -0.22400153
-0.08277902 -0.23660024 0.22955258 -0.13670884 0.08520084 0.050639633 0.11535029 0.19244334
-0.1982905 -0.17234837 -0.13024111 0.035755757 -0.018890854 -0.083934404 -0.038872037 0.17033494
0.19228902 0.081038095 -0.031039143 0.09009448 -0.23203196 -0.04992138 -0.20200552 0.0842551
-0.3161346 0.1252961 0.03229743 0.029946567 0.078411736 0.23670617 0.3122412 0.05379571
-0.17530558 -0.2415842 0.19918935 -0.20635784 0.0022069102 0.07232062 0.08875951 0.09793977
-0.17010637 -0.059208635 0.27291167 -0.1552699 0.08321125 0.09376812 -0.100907125 -0.0017995022
-0.004880221 -0.033295963 -0.059401434 0.054675486 -0.073141396 0.3672159 -0.16381863 0.0857838
0.19606552 0.06381303 0.25525805 0.084589064 -0.20962405 0.21154892 9.463193e-05 -0.053130537
-0.24361679 -0.02374015 -0.23388141 0.15263335 -0.032752313 0.08943164 -0.18378676 -0.24664636
-0.09422291 -0.10915232 -0.21819569 0.17662741 -0.013761705 -0.09748562 0.022968603 0.3366937
-0.22227924 -0.031544264 0.03746144 0.17694896 -0.0034820505 0.14430861 0.07366956 0.21369998
-0.23330647 -0.0051225782 -0.13128476 0.019162953 -0.2628457 -0.26263312 -0.18860781 -0.08235562
00000000: 22d2 d83d dfce 98bd 0f9c 36be 5eca ac3c
00000010: 9222 efbd 85a1 87be dd3d 17bd 4f69 f2bd
00000020: 50f9 a8bd 2ff6 d9bd d0a0 2cbe 6af1 033e
00000030: 1a38 7e3e ccec 1d3e 7f7b 013e 6148 11bc
00000040: c275 d0bc f632 18be 666d 2f3d 76bc 9fbd
00000050: 8be4 6dbc 64c8 5cbe a179 f1bd 2377 573d
00000060: 2ff5 90bd 0c9e 31be 7dae 80bd ed8e 90be
00000070: 6aff f6bd 6a50 183e f102 a7bd 0d5c 113d
00000080: c222 5d3d f37a 343c 338a 8abd 0d12 d33c
00000090: 346d 74bc f332 acbd ab61 043e f84c 893d
000000a0: 5d74 30be a28a 723d cd81 4e3d 7b6e 033d
000000b0: 8951 f83d c4cc 24be d2a3 31be f22f d2ba
000000c0: 6aab 4fbd 5585 50bd a449 023e 22f6 18bd
000000d0: 6b7d 563c 79d5 a3bc 5524 9e3d 8cef 09be
000000e0: 398a 3fbe b23f e23d d788 1a3e f953 373e
000000f0: 2704 06bd c0da 1a3d 7dd7 7d3c 6fe0 61be
00000100: 1e00 293e 1c36 4e3b ca20 3bbd 052b 13be
00000110: 5a29 303e 721a e1bc e29a b33d 6b6e 1cbe
00000120: 3226 a3bd b483 023e e5a4 573e 15fc 1dbd
00000130: f399 063e ba95 90bd 3436 b7bc e5e7 103d
00000140: 8a7c 2c3e bc18 283d 099c 0bbe 99d1 bd3d
00000150: d8a2 8cbd 5393 f23c 39c2 2f3e 57a7 4dbe
00000160: 0157 27be 0d2b 293d 70ed 09bd ccd3 373e
00000170: 4a07 fdbd 52f2 b0bc c83a 6fbd 858d 9a3d
00000180: b0f5 f5bc b8c9 223e 9cbe f1bd c9d0 733e
00000190: 674e 463e a111 93bd 091f 853e ee9e 26be
000001a0: badb b13d e456 633d db64 b7bd 2870 35be
000001b0: 3f65 6f3e 5376 c93d 3287 0bbe d390 92bd
000001c0: 3b7f 0c3d cf5a f73d 63f2 0dbe e5dd 4c3c
000001d0: a4a5 0b3c bfce 833c 60ac a0bd e737 c43c
000001e0: 0dcd 9b3d f637 6ebd 1ead 1abe 4a23 92bd
000001f0: 6c03 bd3b f314 edbd 3ace f8bd 447e 4a3e
00000200: 3072 3cbe c1bc 05be e032 ccbd f558 253e
00000210: 9d02 453e c68a 39be 73fb b4bd 7407 2c3e
00000220: a2a7 3cbd cdfe de3d e74d f2bd e502 00be
00000230: 726f 0e3e bbde 1fbe 9a4d 53bd 442c e43d
00000240: 6c1d d43d 6efd ddbc 176f 243e 3278 99bd
00000250: 950c d53d df4a f03c 9b60 cc3c b4bf 3a3e
00000260: fbf7 453e be1b 1abe 3e36 afbd 963b 82bb
00000270: 50cd 343d 671c c3bd 3b5e 35be a860 65be
00000280: 0c88 a9bd 5547 72be d50f 6b3e 67fd 0bbe
00000290: c77d ae3d 816b 4f3d c63c ec3d de0f 453e
000002a0: aa0c 4bbe 177c 30be ed5d 05be a174 123d
000002b0: fec0 9abc cde5 abbd 4938 1fbd 486c 2e3e
000002c0: 6ae7 443e 4df7 a53d cd45 febc 7483 b83d
000002d0: c999 6dbe 5c7a 4cbd 89da 4ebe f08d ac3d
000002e0: 65dc a1be 9f4d 003e 4f4a 043d 8152 f53c
000002f0: 5596 a03d 1a63 723e 14de 9f3e e458 5c3d
00000300: 4e83 33be d961 77be 4bf8 4b3e 784f 53be
00000310: cfa1 103b d51c 943d 8cc7 b53d a594 c83d
00000320: 5d30 2ebe c184 72bd 14bb 8b3e 13ff 1ebe
00000330: a96a aa3d 8009 c03d 65a8 cebd 46dd ebba
00000340: 43ea 9fbb 5961 08bd eb4e 73bd 67f3 5f3d
00000350: 28cb 95bd b903 bc3e 12c0 27be 6baf af3d
00000360: 66c5 483e 68b0 823d 2fb1 823e 083d ad3d
00000370: b0a7 56be 48a0 583e 2175 c638 689f 59bd
00000380: ae76 79be b47a c2bc 9c7e 6fbe eb4b 1c3e
00000390: 4a27 06bd f027 b73d 9932 3cbe dd90 7cbe
000003a0: f1f7 c0bd 408b dfbd b16e 5fbe d1dd 343e
000003b0: c678 61bc 8aa6 c7bd a728 bc3c 1e63 ac3e
000003c0: 2b9d 63be 8f34 01bd 2b71 193d 1c32 353e
000003d0: 1d33 64bb a3c5 133e 11e0 963d 2bd4 5a3e
000003e0: e4e7 6ebe 4ddb a7bb 836f 06be a0fb 9c3c
000003f0: b693 86be d977 86be 6822 41be 10aa a8bd

cae2.encoder.bias f4 [40]
0.007935488 0.013940168 0.09576722 -0.025588 0.05071421 0.060805574 -0.03841932 -0.02790931
0.006438851 -0.12382787 -0.05520486 0.09484472 0.08916186 0.061899222 -0.09452661 0.017672041
0.009940846 -0.05556796 -0.052787576 0.071891375 -0.1157508 0.08417744 0.13515782 0.05404854
0.04327279 0.05099997 0.042502347 -0.026641184 0.050607987 0.06875894 -0.06817687 -0.0066987462
0.069657944 0.099333026 -0.10219009 -0.0401632 -0.026332451 -0.004073254 0.043839958 -0.032169912
00000000: d903 023c 4d65 643c 9b21 c43d ed9d d1bc
00000010: b4b9 4f3d 440f 793d 945d 1dbd 11a2 e4bc
00000020: fffc d23b 7799 fdbd 7e1e 62bd f33d c23d
00000030: 7e9a b63d 0a8a 7d3d 2b97 c1bd f5c4 903c
00000040: eede 223c 3b9b 63bd c937 58bd c93b 933d
00000050: c10e edbd 3965 ac3d d066 0a3e 0062 5d3d
00000060: cf3e 313d 58e5 503d f116 2e3d 9d3e dabc
00000070: 524a 4f3d 7dd1 8c3d 51a0 8bbd 2881 dbbb
00000080: d3a8 8e3d 1d6f cb3d 0a49 d1bd 2b82 24bd
00000090: 27b7 d7bc ee78 85bb 8791 333d 99c4 03bd

cae2.decoder.weight f4 [80, 40]
-0.1359907 0.035736255 -0.018937383 -0.060633294 -0.039017357 0.19693457 -0.0023622734 -0.16010174
-0.17265978 0.09539697 -0.046257354 0.13053402 0.061738897 0.124791555 -0.121815495 0.15508987
-0.16264041 0.04662486 0.2576437 -0.088059574 0.0468265 0.23138496 -0.16285427 -0.109865755
-0.15954125 -0.19318831 -0.0141439885 0.008555588 -0.031193238 -0.04625764 0.21754648 -0.017275227
-0.11598547 0.16905428 0.17005903 0.19109301 0.15738647 0.15377021 0.17287447 0.0018837556
-0.1038295 0.2250488 -0.048167307 -0.07600306 0.21923906 -0.07119791 0.1247675 0.046899937
-0.15840527 -0.17048642 0.04642667 0.21932387 -0.058899686 0.27838802 -0.021324584 0.057663817
0.12840553 0.2597753 -0.056820314 0.19948086 0.13598835 -0.12569118 0.04329904 -0.18211067
-0.041159038 0.071028 -0.08196118 -0.14548305 -0.05858283 0.028183946 -0.10816745 0.20719483
-0.14605801 0.09102317 -0.1062704 -0.16834208 -0.11883641 -0.17899413 0.055624854 0.072631896
-0.036488708 -0.15561454 0.07313095 -0.10228307 -0.11752179 -0.16919322 0.06743258 0.09379641
-0.073180996 0.08954359 0.23235199 0.15825345 0.16757825 0.14931586 -0.17919956 -0.11171151
0.1678203 0.030270787 0.26251602 -0.0971558 -0.11788449 0.22261971 0.24767976 -0.16847932
-0.017631121 0.0818872 -0.10737355 0.07545629 0.010508252 0.06556821 0.21003792 -0.09547768
-0.11571205 0.13662587 0.2171083 -0.050464287 -0.064299636 0.092304945 -0.10219306 0.14278905
0.061855394 -0.06225258 -0.18215019 0.09355998 0.09774667 0.008731267 -0.004727634 0.25690782
-0.067874365 -0.17436828 0.15902337 0.042510267 0.20652829 0.044819184 -0.058385447 -0.07032513
0.08921123 -0.1526722 0.07628792 -0.18054515 -0.16206647 0.059119716 0.23388663 -0.036430135
0.004210194 -0.09429584 -0.07827104 -0.0059582507 0.15937133 0.23236588 0.016387822 0.21101767
-0.20679107 -0.1539514 -0.021091256 0.038710397 0.1485362 0.10136338 0.22269177 0.10925881
-0.15746059 0.12955365 0.11617343 0.24132735 0.083347976 0.12396127 -0.13875423 0.022526126
0.117588215 0.18337348 -0.13819219 0.1771596 0.07602188 0.14235248 -0.0084087 0.17518952
-0.07505406 0.040538855 0.09960103 0.046811037 -0.055063304 0.02415523 -0.12838674 0.09206053
-0.09219586 -0.11294223 -0.15445341 0.18650322 0.13780785 -0.12314976 -0.14702357 -0.029971635
0.24387208 -0.10002426 0.13384487 0.20799018 0.20788196 -0.017235871 -0.045432083 -0.065640226
-0.20014088 -0.20690954 0.06555219 -0.027784653 0.11409317 -0.028013809 0.036096647 0.04386496
0.12974714 -0.14072673 0.0010612856 -0.15636687 -0.20301242 -0.22519615 0.18532291 0.1178015
0.0581133 0.18835372 -0.016030269 -0.00040119953 0.20500684 0.041712634 0.032825056 0.08769466
-0.012445913 0.19062969 0.0852335 0.069346935 -0.07712933 0.10588085 0.05808078 -0.13714753
0.05173893 0.08806826 -0.1266623 -0.22608006 0.1999184 0.1454239 -0.17999603 0.06175111
0.2247801 0.04153564 -0.19274105 0.10870304 -0.05711539 0.23929091 -0.062421422 0.20463371
0.09503661 0.2458015 -0.15958571 0.20984861 0.08434652 -0.112024166 0.1435778 -0.2616058
00000000: 2541 0bbe 2e60 123d 9222 9bbc 9e5a 78bd
00000010: aad0 1fbd 37a9 493e 5fd0 1abb b6f1 23be
00000020: bacd 30be 7d5f c33d 5a78 3dbd b6aa 053e
00000030: ede1 7c3d b792 ff3d 677a f9bd e1cf 1e3e
00000040: 358b 26be b6f9 3e3d e0e9 833e 9458 b4bd
00000050: 25cd 3f3d 2ef0 6c3e 45c3 26be 4c01 e1bd
00000060: c85e 23be 28d3 45be 30bc 67bc bd2c 0c3c
00000070: f688 ffbc a778 3dbd 81c4 5e3e c784 8dbc
00000080: ca89 edbd 911c 2d3e f423 2e3e e3ad 433e
00000090: eb29 213e f075 1d3e 0106 313e 59e8 f63a
000000a0: 90a4 d4bd 3173 663e 154b 45bd 7ea7 9bbd
000000b0: 3480 603e 36d0 91bd 1a86 ff3d 261a 403d
000000c0: fe34 22be fe93 2ebe e429 3e3d 7096 603e
000000d0: cc40 71bd e088 8e3e e5b0 aebc e530 6c3d
000000e0: bd7c 033e 4501 853e 6bbc 68bd b644 4c3e
000000f0: 8840 0b3e 30b5 00be 565a 313d 387b 3abe
00000100: 6196 28bd 2177 913d 43db a7bd 82f9 14be
00000110: 8df4 6fbd 05e2 e63c e586 ddbd e22a 543e
00000120: 3b90 15be 5b6a ba3d 4ca4 d9bd de61 2cbe
00000130: 8160 f3bd 3d4a 37be e3d6 633d 08c0 943d
00000140: 2f75 15bd 6b59 1fbe aec5 953d c979 d1bd
00000150: 44af f0bd fd40 2dbe 181a 8a3d 5518 c03d
00000160: ebdf 95bd a162 b73d aeed 6d3e 310d 223e
00000170: a299 2b3e 42e6 183e 1780 37be 01c9 e4bd
00000180: 16d9 2b3e 71fa f73c 8068 863e 9ff9 c6bd
00000190: 6c6d f1bd 6cf6 633e c39f 7d3e d885 2cbe
000001a0: 246f 90bc 7ab4 a73d aae6 dbbd d488 9a3d
000001b0: ce2a 2c3c a048 863d 2e14 573e cd89 c3bd
000001c0: 70fa ecbd a7e7 0b3e a351 5e3e a4b3 4ebd
000001d0: 87af 83bd 600a bd3d 984a d1bd 4b37 123e
000001e0: 155c 7d3d 90fc 7ebd 9485 3abe 609c bf3d
000001f0: 682f c83d 970d 0f3c 45ea 9abb 6c89 833e
00000200: b701 8bbd 998d 32be 06d7 223e 3f1f 2e3d
00000210: 277c 533e 5294 373d 9425 6fbd 9f06 90bd
00000220: 61b4 b63d 1a56 1cbe d73c 9c3d d4e0 38be
00000230: c1f4 25be 8427 723d fa7f 6f3e c437 15bd
00000240: abf5 893b 2d1e c1bd 914c a0bd 6e3d c3bb
00000250: 3d32 233e 52f1 6d3e c13f 863c 0415 583e
00000260: 0ac1 53be 70a5 1dbe 92c7 acbc cb8e 1e3d
00000270: e019 183e 9b97 cf3d 5009 643e 15c3 df3d
00000280: 593d 21be b6a9 043e 56ec ed3d 841e 773e
00000290: 58b2 aa3d 68df fd3d 9715 0ebe b688 b83c
000002a0: 17d2 f03d 42c6 3b3e 4182 0dbe 5469 353e
000002b0: 5cb1 9b3d d9c4 113e a5c4 09bc e264 333e
000002c0: f1b5 99bd 120c 263d a0fb cb3d eebc 3f3d
000002d0: 0f8a 61bd 30e1 c53c d077 03be 3b8a bc3d
000002e0: 2fd1 bcbd 424e e7bd 0929 1ebe b3fa 3e3e
000002f0: 801d 0d3e f135 fcbd 598d 16be 1387 f5bc
00000300: 9ab9 793e 85d9 ccbd a10e 093e 61fb 543e
00000310: 02df 543e 3e32 8dbc fe16 3abd 626e 86bd
00000320: bbf1 4cbe 18e0 53be 3a40 863d a49c e3bc
00000330: aea9 e93d 377d e5bc 14da 133d bfab 333d
00000340: 6fdc 043e ab1a 10be d61a 8b3a a31e 20be
00000350: 7de2 4fbe d299 66be 4ac5 3d3e ea41 f13d
00000360: 3608 6e3d ccdf 403e e951 83bc 1758 d2b9
00000370: 50ed 513e deda 2a3d 9173 063d 4299 b33d
00000380: f1e9 4bbc 6e34 433e e78e ae3d c405 8e3d
00000390: fbf5 9dbd 0fd8 d83d 1de6 6d3d 6770 0cbe
000003a0: 33ec 533d 225d b43d c3b3 01be 8881 67be
000003b0: 69b7 4c3e 01ea 143e e150 38be bbee 7c3d
000003c0: c12c 663e 4621 2a3d e95d 45be b39f de3d
000003d0: d4f1 69bd ad08 753e 9bad 7fbd 808b 513e
000003e0: 8ea2 c23d 63b3 7b3e 706a 23be 8ee2 563e
000003f0: debd ac3d ed6c e5bd 0f06 133e 32f1 85be

cae2.decoder.bias f4 [80]
0.08571124 0.10461911 -0.05792503 0.10797977 0.013431794 0.12518063 0.11662189 0.11157451
-0.084822536 -0.07188995 -0.110474974 0.0100064855 -0.033716522 -0.0062200115 0.1125929 -0.050075
0.053567395 0.081929475 -0.009885626 -0.10921968 -0.04477927 0.10626747 0.11155261 -0.06338413
0.075266905 -0.063601635 0.1493191 -0.13812928 0.16637771 -0.047378846 0.14249937 -0.08245375
0.0034733522 0.11980251 0.11714222 -0.0060729887 -0.07505356 -0.01449423 -0.10155597 -0.066619344
0.15782918 0.067720585 0.11638639 -0.09378908 0.1837713 -0.060337935 0.1713197 -0.02952988
-0.10523715 -0.018098384 0.033057608 0.06273157 0.00990344 -0.121913716 0.11251593 -0.13064073
-0.026503777 -0.07747911 -0.07766131 -0.06658352 -0.026433384 -0.07679908 -0.023691215 -0.095505476
-0.12423558 0.103740945 0.015718294 0.094103135 0.07679428 0.12119437 -0.012651339 0.07440982
0.16481483 0.11629917 0.01686415 0.033899922 -0.051012956 0.10275349 0.04589144 -0.012873348
00000000: 6089 af3d 8b42 d63d cc42 6dbd 7f24 dd3d
00000010: 0711 5c3c 5a2f 003e 75d7 ee3d 2d81 e43d
00000020: 70b7 adbd 0a3b 93bd b440 e2bd 3ef2 233c
00000030: 561a 0abd 3dd1 cbbb 1b97 e63d 711b 4dbd
00000040: 7c69 5b3d a4ca a73d 52f7 21bc 91ae dfbd
00000050: 786a 37bd c2a2 d93d b275 e43d 8acf 81bd
00000060: 8925 9a3d 9341 82bd 1be7 183e c371 0dbe
00000070: eb5e 2a3e 5210 42bd 5beb 113e 83dd a8bd
00000080: 2ea1 633b 055b f53d 43e8 ef3d ecff c6bb
00000090: aeb5 99bd 3579 6dbc 94fc cfbd b96f 88bd
000000a0: f99d 213e 17b1 8a3d fd5b ee3d 7d14 c0bd
000000b0: 8b2e 3c3e e924 77bd 6e6e 2f3e a6e8 f1bc
000000c0: 9386 d7bd 1043 94bc 6a67 073d 6979 803d
000000d0: 0a42 223c e6ad f9bd c06e e63d afc6 05be
000000e0: 731e d9bc 5ead 9ebd e50c 9fbd f15c 88bd
000000f0: d38a d8bc d648 9dbd 1414 c2bc 6098 c3bd
00000100: 396f febd 2276 d43d a7c3 803c 25b9 c03d
00000110: 5246 9d3d c134 f83d 9047 4fbc 2d64 983d
00000120: 38c5 283e 422e ee3d b026 8a3c a5da 0a3d
00000130: f6f2 50bd 6c70 d23d aaf8 3b3d bcea 52bc

cae3.encoder.weight f4 [20, 40]
0.16137694 -0.11501342 -0.20811562 0.05439985 0.23996037 0.24174796 -0.0649269 0.25104153
0.027232071 0.056531213 -0.3491946 0.041813754 0.090317965 -0.18246663 0.02955226 -0.24334954
0.1980289 -0.03902539 0.10632363 0.04514065 0.22235653 -0.28636518 0.017340275 -0.2265318
0.02318362 -0.017081717 0.1287708 -0.14479029 -0.050694022 -0.31226104 -0.047937322 0.116742514
0.24862038 -0.13751732 -0.15215094 -0.021942947 0.17615764 -0.22895612 -0.11794306 -0.16696782
-0.37155738 0.06168697 -0.020242224 0.014639545 0.056628637 -0.09004577 0.34769374 -0.076495826
0.13198642 0.12982456 -0.0055580637 -0.17774525 -0.2227205 0.28948078 0.0890611 -0.1313235
0.16731776 -0.11480291 0.12257009 0.090672284 -0.13308342 0.19401844 0.051102635 0.25163805
0.12935032 0.19019027 0.42631868 0.33152404 0.22978273 0.1449427 -0.22590983 0.22493336
0.38183114 -0.18643844 0.3069053 -0.03891541 0.059594776 -0.13549547 0.18413624 -0.014044578
-0.080345675 0.19444998 0.04638043 -0.46849012 -0.041945178 -0.11983908 -0.39481848 -0.09537583
0.43686768 -0.18148762 0.06517037 0.11789851 0.3828873 0.009575627 0.11695215 -0.03858416
-0.096858956 -0.091364056 -0.31192842 0.305061 -0.099311166 0.05598252 0.26809046 -0.048929837
-0.028535029 0.3235837 -0.11943472 0.071279705 0.031041583 0.15258792 0.07364658 -0.21312468
-0.29466456 0.1511534 0.0791413 0.31533772 0.17911984 -0.08987542 -0.28383517 -0.1066271
-0.20559259 0.15167443 -0.18872538 0.18949546 -0.046703007 0.17013325 0.17121586 -0.26398334
0.1833573 0.011655119 -0.09123222 -0.059656102 -0.25430176 -0.36935037 -0.39123046 -0.30306208
0.06536165 -0.32358032 -0.14251834 0.21324866 -0.24740018 0.042553455 0.21187675 0.04538155
-0.09854175 -0.014962483 -0.30216238 -0.16292857 -0.06531477 0.08521459 0.23182438 0.23722818
-0.33704865 -0.34328237 -0.20120095 -0.33942527 -0.351975 0.08657317 -0.28639832 0.14312087
0.2452795 -0.10928466 0.3129857 0.28232768 -0.064687215 -0.20033073 -0.09547233 0.24197629
-0.08179756 0.2943919 -0.09549047 -0.12446099 0.35092118 0.33235252 0.113692924 -0.138669
0.2023725 -0.14288336 0.026112948 0.30641162 -0.101283334 0.12740867 -0.17586151 0.13068986
0.13583638 0.17389163 -0.0118299965 0.27110058 -0.038002457 -0.092000425 0.05193286 0.031194674
-0.21801524 -0.09913986 0.10887373 0.30971855 -0.024434876 -0.20235817 -0.013251118 0.06861152
0.10358591 0.0861254 -0.059643663 0.15948509 0.036285248 0.21349558 0.15677267 -0.109560095
0.12643057 -0.31112796 0.0046866564 0.081562616 0.14114389 -0.37870604 -0.23565182 0.15344492
-0.032038346 0.044864286 -0.06252353 -0.36481676 -0.18467322 -0.06525253 -0.13193068 0.044066884
-0.16727449 -0.11166486 -0.30820504 0.09588986 -0.17072834 0.20386966 0.18814205 0.08381493
-0.32887173 0.16568072 -0.11655509 0.12085711 0.23543993 -0.08725016 0.011504295 -0.3416356
0.081794746 0.24946608 -0.3181902 0.0072959396 -0.024280015 -0.10286381 -0.36759052 -0.012415704
-0.11668741 0.2401446 -0.011837537 0.41764536 0.024864618 0.12886779 0.121165946 -0.51524687
00000000: ff3f 253e 288c ebbd 431c 55be 61d2 5e3d
00000010: 2cb8 753e c78c 773e 65f8 84bd 8488 803e
00000020: cb15 df3c 468d 673d a2c9 b2be e644 2b3d
00000030: a0f8 b83d 88d8 3abe 9517 f23c 9f30 79be
00000040: 17c8 4a3e 16d9 1fbd 34c0 d93d 67e5 383d
00000050: 6eb1 633e 759e 92be 310d 8e3c f4f7 67be
00000060: 93eb bd3c f5ee 8bbc 7edc 033e e843 14be
00000070: 89a4 4fbd aee0 9fbe ed59 44bd b316 ef3d
00000080: 5796 7e3e 57d1 0cbe 75cd 1bbe b2c1 b3bc
00000090: ab62 343e 7973 6abe 228c f1bd 9df9 2abe
000000a0: c53c bebe 7aab 7c3d 05d3 a5bc b4da 6f3c
000000b0: 6ef3 673d eb69 b8bd ea04 b23e d8a9 9cbd
000000c0: 7327 073e bbf0 043e 6b20 b6bb da02 36be
000000d0: d810 64be d336 943e aa65 b63d ab79 06be
000000e0: 5955 2b3e ca1d ebbd 0706 fb3d 64b2 b93d
000000f0: 0547 08be c5ac 463e ff50 513d b4d6 803e
00000100: 6974 043e 3dc1 423e 7146 da3e 85bd a93e
00000110: 2a4c 6b3e dc6b 143e e854 67be ee54 663e
00000120: 5f7f c33e b8e9 3ebe b122 9d3e c465 1fbd
00000130: a719 743d 53bf 0abe 368e 3c3e 3b1b 66bc
00000140: 468c a4bd e51d 473e 68f9 3d3d f0dd efbe
00000150: b5ce 2bbd 316e f5bd a625 cabe 6754 c3bd
00000160: 1fad df3e e4d7 39be 0b78 853d c674 f13d
00000170: ce09 c43e 17e3 1c3c 9c84 ef3d 6d0a 1ebd
00000180: fd5d c6bd 141d bbbd 15b5 9fbe f530 9c3e
00000190: a763 cbbd ed4d 653d 2743 893e a76a 48bd
000001a0: 4bc2 e9bc c3ac a53e 319a f4bd 18fb 913d
000001b0: eb4a fe3c 0240 1c3e 05d4 963d 5b3d 5abe
000001c0: 46de 96be f5c7 1a3e d514 a23d f273 a13e
000001d0: 316b 373e 9b10 b8bd d852 91be 4f5f dabd
000001e0: dd86 52be 8b50 1b3e 3a41 41be 190b 423e
000001f0: a74b 3fbd 6937 2e3e 3653 2f3e d328 87be
00000200: 04c2 3b3e 1df5 3e3c f5d7 babd f559 74bd
00000210: d733 82be 7e1b bdbe 5c4f c8be f42a 9bbe
00000220: 54dc 853d 52ac a5be 54f0 11be db5d 5a3e
00000230: 7956 7dbe 884c 2e3d 38f6 583e 01e2 393d
00000240: 42d0 c9bd 3425 75bc 07b5 9abe bfd6 26be
00000250: c0c3 85bd fd84 ae3d 5f63 6d3e f2eb 723e
00000260: a491 acbe b5c2 afbe 9f07 4ebe 26c9 adbe
00000270: 1136 b4be 464d b13d cda2 92be 478e 123e
00000280: 8d2a 7b3e a3d0 dfbd a93f a03e 418d 903e
00000290: bb7a 84bd 8023 4dbe ff86 c3bd a2c8 773e
000002a0: 7b85 a7bd 89ba 963e 8290 c3bd 67e5 febd
000002b0: f1ab b33e 1c2a aa3e d6d7 e83d 3fff 0dbe
000002c0: bd3a 4f3e 0450 12be d2ea d53c fce1 9c3e
000002d0: a36d cfbd 6b77 023e 0a15 34be 90d3 053e
000002e0: b118 0b3e a610 323e 9ad2 41bc b2cd 8a3e
000002f0: 77a8 1bbd b86a bcbd 8db7 543d f98b ff3c
00000300: 633f 5fbe d709 cbbd 31f9 de3d 6e93 9e3e
00000310: a62b c8bc fb36 4fbe 381b 59bc 3284 8c3d
00000320: d924 d43d 8462 b03d ea4c 74bd 0f50 233e
00000330: d79f 143d 969e 5a3e 0489 203e 0b61 e0bd
00000340: 0477 013e 2a4c 9fbe 8692 993b 4d0a a73d
00000350: 0688 103e c2e5 c1be b64e 71be aa20 1d3e
00000360: a43a 03bd 9dc3 373d 560c 80bd 43c9 babe
00000370: fa1a 3dbe 1ea3 85bd d618 07be 7a7f 343d
00000380: 014a 2bbe 8cb0 e4bd 0dcd 9dbe e761 c43d
00000390: 69d3 2ebe 35c3 503e 4fa8 403e 29a7 ab3d
000003a0: e061 a8be 35a8 293e 6fb4 eebd ef83 f73d
000003b0: 2a17 713e 36b0 b2bd 837c 3c3c ddea aebe
000003c0: 0184 a73d 0974 7f3e d3e9 a2be c712 ef3b
000003d0: e2e6 c6bc 43aa d2bd d334 bcbe 3d6b 4bbc
000003e0: cff9 eebd 77e8 753e 3bf2 41bc 9dd5 d53e
000003f0: e2b0 cb3c ebf5 033e da25 f83d 38e7 03bf

cae3.encoder.bias f4 [20]
-0.0040289178 0.10412558 0.056851245 -0.16743568 0.027164793 -0.10337403 0.097023636 -0.18485034
0.008459943 -0.14578511 0.08175211 0.104038976 0.04089716 0.07635051 0.028631162 -0.013483692
-0.0015918572 0.007726349 0.0831801 -0.122277044
00000000: 0305 84bb cb3f d53d dadc 683d 4274 2bbe
00000010: b388 de3c c3b5 d3bd 54b4 c63d 6849 3dbe
00000020: 939b 0a3c b148 15be a66d a73d 6312 d53d
00000030: c883 273d a85d 9c3d e68b ea3c b4ea 5cbc
00000040: dda5 d0ba 502d fd3b 545a aa3d 636c fabd

cae3.decoder.weight f4 [40, 20]
0.039022006 -0.19559972 -0.19705708 0.013135369 0.110839985 -0.030131925 0.26228917 -0.18038203
-0.081178375 -0.1479869 0.05048775 0.052470725 0.26067486 0.05209338 -0.15291229 -0.1348448
0.11795916 -0.23844513 0.11524629 0.35221633 -0.033859707 0.2242922 0.13781571 -0.112506405
-0.17006148 0.12180133 0.40346605 -0.15593176 -0.08992816 -0.05233354 -0.18900076 0.17307298
-0.21662453 0.20458896 0.34811595 0.33361268 -0.211885 0.36404002 -0.13079609 -0.107076645
0.024641039 -0.22660352 -0.256416 0.14405341 -0.23443773 0.36588398 0.12158734 0.12482308
0.14123963 0.28116673 0.36073893 0.123182565 0.13234624 -0.1244141 0.24743819 0.04839318
0.35128674 0.12723829 -0.073356755 -0.2623754 -0.073563814 -0.10502008 0.047182634 -0.0015506432
0.1148794 -0.18323636 -0.03240548 -0.06945797 -0.17371307 0.09219007 0.17433254 0.35765678
-0.08236131 0.023338588 -0.019246913 0.064291485 0.15931 0.13041754 -0.023154099 -0.040472824
0.021833738 0.23846932 -0.036451936 0.10409629 0.24172261 0.08552662 0.08827627 -0.1705319
0.13985085 0.08421236 0.3115592 -0.14198723 -0.16636898 0.15073359 -0.1034766 0.03424864
-0.14682782 0.08041926 0.008955428 0.20211498 0.07102681 0.24761754 -0.013436051 0.031597853
-0.245794 -0.23150606 0.30580994 -0.17264189 -0.19844504 0.22022825 0.2207711 0.18593723
-0.03951901 -0.13720685 -0.21394435 0.36660448 0.31490722 0.17997052 0.18349983 -0.22304948
0.2508946 0.39241898 0.066918254 -0.11834148 -0.28367537 0.32818058 -0.4137213 -0.1301996
-0.02426601 0.19219637 -0.16454497 -0.015137207 0.16902922 -0.17609392 -0.21037863 0.39909837
-0.060534347 0.18356329 0.07086859 -0.23944828 0.028715838 -0.11608399 -0.018716522 -0.16367687
-0.00273038 0.24824074 0.22761342 0.2812677 -0.20283101 -0.1849971 -0.1844901 0.15492833
0.32489094 -0.20367737 -0.14034611 0.2479734 0.2006619 0.2764024 0.104149766 0.22566962
0.07623971 0.08428807 0.09243271 0.24865419 0.22283468 0.043417763 -0.02520101 -0.07017051
-0.27763233 -0.20582001 -0.085245326 -0.2404492 -0.021119604 0.08680333 -0.097136796 0.23887984
0.3125722 -0.22382866 0.13400787 0.2781117 -0.059847336 -0.062083982 0.28291264 0.31863716
0.12422188 -0.17381981 0.1119216 -0.26676047 -0.25788635 -0.13795306 -0.046234146 0.19320977
0.047904648 0.010192098 -0.20811042 -0.17966545 0.36895478 -0.2103009 -0.049325995 0.07297609
-0.13854533 0.3354825 -0.18949981 -0.12843093 0.23299539 -0.006688667 0.1583602 -0.014114796
0.0013195156 0.22308592 0.03065761 -0.13487972 0.2405684 -0.12342637 -0.08804329 -0.025243036
0.027276168 -0.16000773 0.1391246 -0.18331927 0.14084597 0.35525456 0.14526622 -0.20398442
0.3778581 -0.05736936 0.25877997 0.058872852 0.21669057 0.083271295 -0.015295835 -0.12297129
0.2705831 0.05938222 -0.24891008 -0.04825587 -0.11913401 -0.0875711 0.055838525 -0.058515295
0.16881526 0.21092506 0.20159875 0.08464383 0.0209167 0.33093783 0.21551691 -0.021309191
0.33554384 0.1081905 0.32106948 -0.1527551 0.12581684 -0.14338472 -0.07273641 0.22536287
00000000: 8ad5 1f3d 4b4b 48be 55c9 49be bb35 573c
00000010: 1300 e33d 3ad7 f6bc c44a 863e 11b6 38be
00000020: d940 a6bd e189 17be 3ecc 4e3d 8beb 563d
00000030: 2d77 853e de5f 553d 0a95 1cbe c114 0abe
00000040: 9294 f13d f62a 74be 3f06 ec3d b355 b43e
00000050: 7ab0 0abd dbac 653e 901f 0d3e c269 e6bd
00000060: 9924 2ebe fa72 f93d 1a93 ce3e 93ac 1fbe
00000070: 412c b8bd b25b 56bd 6a89 41be 0b3a 313e
00000080: d2d2 5dbe c57f 513e 413c b23e 48cf aa3e
00000090: 62f8 58be 7463 ba3e 69ef 05be 004b dbbd
000000a0: 01dc c93c c10a 68be f548 83be bd82 133e
000000b0: 7210 70be 2555 bb3e c902 f93d 3ea3 ff3d
000000c0: 1fa1 103e 16f5 8f3e c6b2 b83e 2447 fc3d
000000d0: c685 073e d2cc febd 7060 7d3e ed37 463d
000000e0: dbdb b33e c14a 023e 113c 96bd 1256 86be
000000f0: a0a8 96bd c514 d7bd 9442 413d f43e cbba
00000100: e445 eb3d 50a2 3bbe 9cbb 04bd fb3f 8ebd
00000110: d7e1 31be 26ce bc3d 3b84 323e ca1e b73e
00000120: 0cad a8bd 9130 bf3c b4ab 9dbc 41ab 833d
00000130: 2922 233e 2d8c 053e aaad bdbc d5c6 25bd
00000140: abdc b23c 4d31 743e a04e 15bd 7030 d53d
00000150: 2286 773e 9528 af3d 30ca b43d ea9f 2ebe
00000160: 1035 0f3e 8877 ac3d b084 9f3e 1a65 11be
00000170: a15c 2abe e859 1a3e 8aeb d3bd 4d48 0c3d
00000180: 085a 16be dab2 a43d cab9 123c 3bf7 4e3e
00000190: 8176 913d 748f 7d3e e222 5cbc c06c 013d
000001a0: 6cb1 7bbe ed0f 6dbe 1f93 9c3e 09c9 30be
000001b0: 2d35 4bbe 8483 613e d211 623e 5466 3e3e
000001c0: afde 21bd f47f 0cbe 3a14 5bbe 95b3 bb3e
000001d0: 853b a13e 314a 383e 61e7 3b3e 1567 64be
000001e0: 4275 803e 24eb c83e 700c 893d 055d f2bd
000001f0: e63d 91be 4907 a83e 47d3 d3be 0b53 05be
00000200: 83c9 c6bc 20cf 443e 7a7e 28be 0c02 78bc
00000210: ff15 2d3e f751 34be 7f6d 57be 9f56 cc3e
00000220: ddf2 77bd 04f8 3b3e 8d23 913d ee31 75be
00000230: 7a3d eb3c 71bd edbd 6453 99bc e99a 27be
00000240: 2df0 32bb d232 7e3e 7e13 693e 5202 903e
00000250: efb2 4fbe e16f 3dbe f9ea 3cbe 88a5 1e3e
00000260: 1b58 a63e cd90 50be e4b6 0fbe bdec 7d3e
00000270: 507a 4d3e 9e84 8d3e 794c d53d f015 673e
00000280: 9123 9c3d 399f ac3d 5c4d bd3d 349f 7e3e
00000290: c62e 643e d3d6 313d 5972 cebc 8eb5 8fbd
000002a0: d325 8ebe 7bc2 52be 1a95 aebd 5138 76be
000002b0: 0503 adbc f2c5 b13d a8ef c6bd eb9c 743e
000002c0: 7709 a03e 5733 65be 5c39 093e a864 8e3e
000002d0: 7b22 75bd c64b 7ebd edd9 903e 6924 a33e
000002e0: 0b68 fe3d d2fd 31be 2737 e53d d494 88be
000002f0: ae09 84be 9143 0dbe 0460 3dbd c8d8 453e
00000300: aa37 443d c2fc 263c e61a 55be 38fa 37be
00000310: a4e7 bc3e 1e59 57be 0e0a 4abd 7d74 953d
00000320: d4de 0dbe 5dc4 ab3e 3d0c 42be 6683 03be
00000330: 5896 6e3e 9b2c dbbb 2d29 223e bf41 67bc
00000340: 99f3 ac3a a370 643e ab25 fb3c e91d 0abe
00000350: 9057 763e f7c6 fcbd 0a50 b4bd 7cca cebc
00000360: 4572 df3c 11d9 23be ae76 0e3e 0cb8 3bbe
00000370: ed39 103e ede3 b53e abc0 143e 4be1 50be
00000380: 9e76 c13e 22fc 6abd cf7e 843e a924 713d
00000390: 22e4 5d3e 248a aa3d 629b 7abc 5fd8 fbbd
000003a0: de89 8a3e c53a 733d 49e2 7ebe f2a7 45bd
000003b0: 88fc f3bd 7a58 b3bd f0b6 643d bcad 6fbd
000003c0: e8dd 2c3e bdfc 573e e76f 4e3e bf59 ad3d
000003d0: 8059 ab3c af70 a93e 77b0 5c3e 9d90 aebc
000003e0: 67cc ab3e fb92 dd3d 3863 a43e d56b 1cbe
000003f0: 21d6 003e 72d3 12be d4f6 94bd 86c5 663e

cae3.decoder.bias f4 [40]
0.20061512 0.15503597 -0.14465469 0.089228444 0.14784223 0.09342669 0.26725638 0.004791787
-0.059020694 0.19675782 -0.118438736 -0.07801919 -0.09289435 -0.045840938 -0.039613012 -0.124910206
0.047531843 0.13568054 0.2387046 -0.041841347 -0.07444034 0.2249828 0.22018348 0.20263773
-0.008689261 0.07701502 -0.13426857 -0.17890061 -0.2146034 0.09023524 0.11571605 0.25795338
0.1305809 -0.072869875 0.027732488 0.16423273 0.088193074 0.30919367 0.056122493 0.17229456
00000000: 0d6e 4d3e c0c1 1e3e 5c20 14be 67bd b63d
00000010: f463 173e 7e56 bf3d d4d5 883e 6c04 9d3b
00000020: afbf 71bd e27a 493e 0290 f2bd 86c8 9fbd
00000030: 653f bebd b5c3 3bbd 4141 22bd ecd0 ffbd
00000040: c0b0 423d d7ef 0a3e fb6e 743e d561 2bbd
00000050: 2d74 98bd e461 663e c777 613e 4480 4f3e
00000060: 675d 0ebc 0dba 9d3d b37d 09be b931 37be
00000070: fec0 5bbe 41cd b83d 89fc ec3d 7712 843e
00000080: 00b7 053e cd3c 95bd 3e2f e33c a02c 283e
00000090: 929e b43d a24e 9e3e b3e0 653d fc6d 303e
